Assets/Testing/Desno.onnx (onnx, 304843 bytes, 9 tensors)

62 f4 [35]
00000000: 48fa ff3e d9ba ff3e 05a1 013e c0aa 433e
00000010: 41c9 ff3e 45de ff3e 4c2f 873d ddd1 283e
00000020: b90b be3e 0b40 bd3e 6573 293d e8bb 0b3e
00000030: 7a3b d73e 1cc5 d63e c21f 193d e718 fe3d
00000040: 0d78 db3e ba5c d43e 7696 153e a732 453e
00000050: 0295 f53e 50ff ff3e a901 b13e 2ab5 ad3e
00000060: 23c9 f63e 957e fa3e fa20 2e3e 8f7a 5c3e
00000070: d56e fb3e 4bf4 e43e 3461 ee3e 9a58 e43e
00000080: da0f b73e 84b7 383b 4ed4 ca3e
0.49995637 0.4994724 0.1265908 0.19108105 0.49958232 0.49974266 0.06600818 0.16486306
0.3711832 0.36962923 0.041369814 0.136459 0.42037565 0.41947258 0.037383802 0.124070935
0.4286503 0.41476995 0.14608178 0.19257604 0.47965246 0.49999475 0.3457158 0.3392728
0.4820033 0.489247 0.17004767 0.21531127 0.49107996 0.4471763 0.46558535 0.44598848
0.3575428 0.0028185556 0.396151

action_model._continuous_distribution.log_sigma f4 [1, 2]
00000000: d1be 45bf c98d 55bf
-0.7724429 -0.8341947

action_model._continuous_distribution.mu.bias f4 [2]
00000000: 886b 903c cd8d 0b3e
0.0176294 0.13628311

action_model._continuous_distribution.mu.weight f4 [2, 256]
00000000: 18be ecbd 3c63 9c3d c44f 2abd 4bd7 393c
00000010: 9182 9f3d 7e2d 9ebd f495 debd 829c b0bd
00000020: b794 943d c744 213c 1b70 0b3d 961c 763c
00000030: 0523 4abc 0862 eabc 50d8 56be 56e2 303d
00000040: c965 9ebc b289 ddbb 100c 5bbc 97bb 46bc
00000050: 2aa9 fcbd b09a e4bc a2fa b13c f0dd 70bd
00000060: 5892 e33c 82db 17bd ac0c 40bd 1828 04bd
00000070: 4d4d 653d 09ae aa3c 9ff9 d9bc 9244 e43c
00000080: 8a59 fe39 747b 6e3c 2189 3dbc 2053 7e38
00000090: 4d6e 9c3b e42c c8b9 2dee 4cbc 29a0 92bd
000000a0: 3421 7dbd 9551 53b9 27b5 9cbd 1d4e 9537
000000b0: da60 363d 3e03 a0ba 195c 10bc 01bf f8bc
000000c0: 5701 81bd 9c4d c2bb 87be 58bd a7ca dd3c
000000d0: 99e7 3bbc 8bd8 b23c 7eaf 86bc 13ea bbbc
000000e0: e1df 64bd a524 78bd 243e e2b9 ae41 3bbc
000000f0: 5adf 03bd 0ee2 4b3d c175 50bc 8f7e c23c
00000100: 51c2 c83a d423 303d aa65 dfbc e5c2 5abd
00000110: ba43 15bd c47c 2dbc 2755 75bc ada4 883c
00000120: f7d6 e5bc bb36 f7bc 0d86 df3d c21b 3c3a
00000130: 46ad e33d 1cde 53bc 8b6f 6fbc 77c3 82ba
00000140: 5f78 1d3d 49eb 463c d862 9dbd 817b 1ebd
00000150: e478 42bd 56ce e73c 3bc7 1abe ddcd c8bd
00000160: 4906 72bb 6502 56bc ed08 873d 17f6 5cbd
00000170: ee49 863a f865 f4bd 7ca3 0cbe 30f9 ed3b
00000180: 17e4 10bc 91cc 99bd b696 5bbd 5102 a3bc
00000190: 4ca0 513d d41d bbbc db80 d8bd 1317 f1bd
000001a0: 5b8f ebbc bd87 d13b 5831 86bd f80a 8d3a
000001b0: 4f2f c03c bb46 bcbc 7bb6 38bd 9743 c4bd
000001c0: 40cd 0abc 83a9 93ba 45a1 89bd ae20 ddbd
000001d0: eb2f 3d3d 30b1 0ebe c688 39bd 8aa3 c33a
000001e0: 90cc 2e3d e8e9 a93d 6c65 b23d 5f4b 45bd
000001f0: 9168 cdbd 8e51 29bd 3b6b 8bbd c768 a2bd
00000200: 2bb8 db3c 2cd9 77bd 99c1 7fba 3e52 61bd
00000210: 44c4 8ebc b35c aebd f1b0 12be b436 0cbd
00000220: f182 50bd 91f2 a939 462a 0cbc 5422 62bd
00000230: 9f18 21bd 50b8 7d3d 8404 1c3b e49a 43bc
00000240: 2851 53bd 7284 0b3b c867 59bd 18c4 d23b
00000250: ab1f 8139 a931 b03d b755 7ebd 1846 523c
00000260: 030e ea39 f7e0 c3bc 2072 173a 35b1 7f3a
00000270: 7ee7 d93d f53e 7a3d 4285 1bbe 7809 80b9
00000280: a011 173e 626d 583a f997 81bd 5bf7 2bbc
00000290: 5d85 2b3d 9b1f 3c3a b820 96bc 78ba f0bc
000002a0: 3e80 9fbc 89a3 a8bc c632 2dbd fa72 97bc
000002b0: 847f 93bc f667 543d 69a4 94bc 2bb3 b7ba
000002c0: 6b68 003d c8b8 383b 2815 993d d8db f4bd
000002d0: 89cd 42bc ea35 adbd 7022 133d dcb8 a1bc
000002e0: 89b8 c03a 02de 0c3a df58 38bb 0249 2abd
000002f0: a71c db3c bc8e 22be df9d adbc 5efe 47bd
00000300: 21a7 e3bc 46a9 26bd f156 61bc 9c65 7b3a
00000310: 0066 69bc 0924 3dbd c166 73bd 65da 55ba
00000320: 198a 65bc 1327 11bc 0ae4 05ba 73ab 0cbd
00000330: 2bd6 36bd 059a 313c 4f12 ae3c 3b9c 143d
00000340: 38ae 593c 3f1a 223d 3e7b a73c abbd 063d
00000350: 80a7 953c f12a b03d 6fd9 0fbd 2a84 a63c
00000360: 828c cbbc 29fe 31bd ccd8 013e c9cf 90bd
00000370: b68b cfbc 6858 fbbd 6ff0 113d f9fc f1bc
00000380: 91e9 3cb9 5048 3abd 840a 1dbc 8b2f 3dbd
00000390: 30d5 663b a93e 403b 4838 47bd 9379 bcbd
000003a0: a660 c33d 6f91 cc3d 869f 02bd 3217 8d3d
000003b0: f53a 9bbd 92e3 0dbc 6b91 34bd c53a f3bc
000003c0: d25f babc a6aa 6bbc 8cbb f5bc 15f0 bc39
000003d0: d30d 57bd bf85 1abd 876e 5f3d adf3 b03d
000003e0: eced 863d ef3e 363c 4a30 c7bc 50b3 bd3d
000003f0: 009a 7c3c 1459 9439 e253 543e b839 2f3b
-0.11559695 0.07636115 -0.041579977 0.011342834 0.077885754 -0.07723521 -0.10868445 -0.086236015
0.072549276 0.009843058 0.03404246 0.015021464 -0.012337451 -0.028611198 -0.20980954 0.0431846
-0.019335644 -0.0067607993 -0.013369575 -0.012129686 -0.12336953 -0.027905792 0.021725956 -0.058805406
0.027779743 -0.037074573 -0.046887085 -0.0322648 0.055981923 0.02083494 -0.026608286 0.027864728
0.00048513367 0.014555801 -0.011568339 6.0635735e-05 0.004773891 -0.0003818042 -0.012507957 -0.071594544
-0.061799243 -0.0002015292 -0.076517396 1.7798558e-05 0.04452596 -0.0012207997 -0.00881102 -0.030364515
-0.06299084 -0.005929662 -0.052916076 0.027074171 -0.011468791 0.021831771 -0.016441103 -0.022938764
-0.05587757 -0.060581822 -0.00043152377 -0.0114292335 -0.032195427 0.04977613 -0.012723387 0.023741988
0.00153167 0.04300292 -0.027270157 -0.053408522 -0.036441542 -0.0105888285 -0.014973915 0.016680086
-0.028056605 -0.030177465 0.1091424 0.0007175767 0.11117034 -0.012931373 -0.014613996 -0.0009976466
0.038444873 0.012141057 -0.076848686 -0.038692 -0.04747857 0.02829663 -0.15115063 -0.0980489
-0.0036930016 -0.013062094 0.06593499 -0.053945627 0.0010245421 -0.119335115 -0.1373424 0.0072623715
-0.008843443 -0.07509721 -0.053610526 -0.019898565 0.05117826 -0.022841372 -0.10571452 -0.11771979
-0.02875488 0.006394355 -0.0655238 0.0010760715 0.023460058 -0.022982946 -0.045095902 -0.09583204
-0.008471787 -0.0011265728 -0.06720213 -0.10797249 0.046188276 -0.13934779 -0.045296453 0.0014926058
0.042675555 0.08296567 0.08710751 -0.048167583 -0.1002971 -0.041337542 -0.06807562 -0.07930141
0.026821217 -0.060509846 -0.00097563263 -0.055010073 -0.017427571 -0.08513775 -0.1432531 -0.034231856
-0.050906125 0.00032414918 -0.008555001 -0.05520852 -0.03933012 0.061943352 0.0023806402 -0.011938784
-0.05159107 0.002128866 -0.05307749 0.0064320676 0.00024628392 0.08603222 -0.062093463 0.012834094
0.00044642398 -0.023910983 0.0005777199 0.0009753884 0.10639857 0.061095197 -0.15187553 -0.00024421117
0.14752817 0.00082560454 -0.063278146 -0.010495986 0.041875232 0.00071763404 -0.018326148 -0.02938579
-0.01947033 -0.020585792 -0.04228475 -0.018487442 -0.01800514 0.051856957 -0.018144803 -0.0014015188
0.03134958 0.002818631 0.07474738 -0.11955994 -0.011889824 -0.08457549 0.035921514 -0.019741468
0.0014703433 0.0005373658 -0.0028129143 -0.041573532 0.026747061 -0.15874761 -0.021193443 -0.048826568
-0.027789654 -0.040688775 -0.013753639 0.0009590031 -0.01424551 -0.046176944 -0.059424166 -0.00081578485
-0.014009976 -0.008859414 -0.0005107528 -0.034343194 -0.04463784 0.010839944 0.021248965 0.036281805
0.013286166 0.03957581 0.020444509 0.032895725 0.018268347 0.086019404 -0.03511947 0.020326693
-0.024847273 -0.043455277 0.12680358 -0.07070882 -0.025335174 -0.122727215 0.035629686 -0.029539572
-0.00018016087 -0.04547912 -0.009585027 -0.04618792 0.0035222284 0.0029334223 -0.04863766 -0.09202876
0.095399186 0.09988677 -0.031890415 0.0688919 -0.075796045 -0.008660214 -0.044083994 -0.02969111
-0.022750769 -0.0143839475 -0.029996656 0.0003603703 -0.05250342 -0.037725206 0.054548766 0.086402275
0.06588349 0.011123403 -0.024315018 0.09262717 0.015417576 0.00028295128 0.20735124 0.0026737284

network_body.linear_encoder.seq_layers.0.bias f4 [256]
00000000: 6076 a3bc 59b8 8dbd aa11 9d3c 626b 6fbd
00000010: 0225 16bc 63ed 483d 8e12 a03c e25b b43b
00000020: 75ad f2bd 62fe 82bd 64d4 bbbd 5170 2fbc
00000030: cdfa 1dbe 5fc5 d3bd a036 dcbc bc1c 61bc
00000040: 1484 80bb e688 bf3d a881 c2bd 7403 903d
00000050: 520d a9bc e6f1 b7bc 0345 2abd 6e82 42be
00000060: 2b80 f1bb 43e6 a8bd f0d2 62bd 2cda b93c
00000070: 4beb 8abc 0bde 203c 7130 37bd 24aa f4bc
00000080: 0852 47bd 0fec 7abd ab2f e2bc 4319 47be
00000090: 9d11 8e3d 7e07 47bd 27d8 6dbd e59c fd3c
000000a0: ab8d fa3c 9c09 593c ce91 803d 0465 283d
000000b0: 7d38 30be b7c7 46bd 1bd8 81bd b661 83bc
000000c0: 3be1 d4bd 7ce7 e8bb e4f2 0d3d fc75 4dbd
000000d0: cad8 45bd 5ef7 f83d 6c57 01be 08ce 93bd
000000e0: 7af0 c83d eb9d b4bc ee3d 283a 8c75 7c3d
000000f0: f09a d9bc dfd0 ecbd daef 153e cfe6 dbbd
00000100: 9ac1 94bc 5a71 b9bd cbed a53d 5e0a cdbd
00000110: ef94 c3bb 88e6 b539 61ce 55bd 455a ae3d
00000120: 1c28 c0b9 0836 3dbc 2de4 2cbd bdf8 963b
00000130: aa6b dd3c 5f5f 543c b3d0 a5bd 8af1 a7bd
00000140: a00c 47bd 28ce 9dbd ccc6 913c cddb 373d
00000150: 6fed 9fbd 8e52 03bc e400 edbc df83 e43c
00000160: 3d4c 263d b4fc c9bd 185e 2fbc 9418 98bd
00000170: 3744 38bd 0314 c3bb ec89 7ebd bd9b bfbd
00000180: b0d3 2a3d f784 053d 6a47 96bd 2da5 28be
00000190: 19d9 2dbd 4f60 f5bb af50 b2bd eb20 36bd
000001a0: a149 babd 5de8 5a3d b360 fabd 159b 1ebe
000001b0: 6744 acbc 8755 10bd 1180 08be 27b9 6f3d
000001c0: 8edc 54bd cc5b d2bd 9008 93bd dc26 0c3d
000001d0: bad2 7abd 3ab9 f93d 64c3 f7ba 716d cbbd
000001e0: 6feb 68bd 2524 febc 4d5c 72bd 13b6 ba3d
000001f0: e00d b7bd f573 07be 31ca dbbc 13c4 923b
00000200: 08f4 863c 5d90 063d e5d2 9b3d 37c1 ab3d
00000210: f2c9 af3d be3d 863c d18a c5bd 959a 9b3b
00000220: b655 b5bd 92e0 5abb 91ec 983d 2760 933d
00000230: e331 0ebe 868a c2bd a22c 083d 5e9c 7c3a
00000240: 57cb 99bd f333 fa3c f386 dfbd 37f0 84bc
00000250: e9b2 20be e8d6 82bc 32e6 03be bae6 8b3d
00000260: b277 75bd 96a1 a9bd a87d 27bd fe11 ebbb
00000270: ebe4 05be a02a f2bc 1a69 86bc e63b 4bbd
00000280: 2b56 333d d298 00bd 2dff 33bd 1328 97bd
00000290: 6c9b e63c 9fb4 88bd 86cd 51bd 3b64 50bd
000002a0: 6eee 923d 58d8 0dbe 7e55 0dbe dccf f03c
000002b0: 5dc7 9f3d ac5e 44bd e50a 87bd 74c4 77bd
000002c0: c4fb 83bd 59b1 cfbd f2c2 01bd 3378 13be
000002d0: 7417 7cbd 54e8 bf3c 06e4 a3bd d0b6 5d3b
000002e0: 0b2f 91bd 78d2 c7bd bfc9 2e3d a1ec cdbb
000002f0: 0e4e fc3a 30fc adba ca1b 62bd 63d6 a63c
00000300: e08b 10be f2bd c8bc ba2e b1bc f94d 6dbd
00000310: a016 2aba fea9 cfbd 3c8b 56bd 7125 123d
00000320: 872c 50bb af2f 56bd a77e 11bd cd2e f53b
00000330: 725d e33a 6ce4 4f3d 54e6 30bd 530c ab3c
00000340: aff1 29be 5992 adbd a63d eabd c3b3 233c
00000350: 1989 b4bb 3c5e 85bd 04e1 efbc d632 133d
00000360: b5ad 07be 064b fdbc 9bdb 8b3d 8300 64bc
00000370: 1895 49bd 115e ee3c cac9 72bc ba80 c2bd
00000380: 9c6d e4bd 7ba2 c8bc d073 c2bd 5bec b43d
00000390: 6463 c2bd 1cca 01be 37d4 623c 48b9 f43c
000003a0: d673 dfbc f509 983d b23f 88bc a6b5 8dbd
000003b0: 03f2 85bd ef79 a5bd 15dc 30bd 6c05 a43c
000003c0: 5c17 353c 0be5 ccbc bc08 09be f94c 7c3d
000003d0: f7b5 e83c 1250 13bd 1e64 2b3d e3bd c2bd
000003e0: fe5c 99bd a0ec dd3c 0bdf ccbc fc88 703c
000003f0: 0528 aebd c9e6 42bc 7a9c 30bd b6d5 373c
-0.019953907 -0.06919927 0.019173462 -0.058452018 -0.009164097 0.049054515 0.019540098 0.0055041173
-0.118494906 -0.06396176 -0.0917137 -0.010707931 -0.15427704 -0.1034038 -0.026881516 -0.013739761
-0.003921995 0.09352283 -0.09497386 0.07031909 -0.020636234 -0.022454213 -0.04156972 -0.18995067
-0.007370015 -0.08247044 -0.055376947 0.02268704 -0.0169579 0.009818564 -0.04472393 -0.029866286
-0.048662215 -0.06126028 -0.02761062 -0.1944323 0.06936953 -0.04859113 -0.058067467 0.030958602
0.03058513 0.01324692 0.0627781 0.04111196 -0.17209049 -0.048530307 -0.06340047 -0.016037803
-0.10394522 -0.007107673 0.034655467 -0.050161347 -0.04830245 0.121565565 -0.12631005 -0.07217032
0.09811492 -0.022047957 0.00064179196 0.06163554 -0.026563138 -0.115632765 0.14642277 -0.107373826
-0.018158723 -0.09054823 0.08101996 -0.10011743 -0.005968682 0.0003469477 -0.05219877 0.08513311
-0.00036650978 -0.011548527 -0.042209793 0.0046072886 0.027028877 0.012962191 -0.08096447 -0.08200367
-0.048596025 -0.07705337 0.017794989 0.044887353 -0.07808959 -0.008015288 -0.028931089 0.027894912
0.04060005 -0.098626524 -0.010703586 -0.07426563 -0.04498693 -0.0059533133 -0.06214325 -0.093558766
0.041705787 0.03259751 -0.0733784 -0.1646926 -0.04244337 -0.0074882875 -0.087067954 -0.044464987
-0.09096075 0.053444255 -0.12225475 -0.15488847 -0.02102871 -0.035237815 -0.13330103 0.058526184
-0.05196815 -0.10271415 -0.071793675 0.034216747 -0.06123612 0.12193532 -0.0018902835 -0.09932984
-0.056865152 -0.031023094 -0.059170056 0.09116759 -0.08938193 -0.13227828 -0.02682981 0.0044789403
0.016473785 0.03285252 0.07608584 0.08386462 0.0858344 0.016386863 -0.09645618 0.004748652
-0.08854239 -0.0033398014 0.074669965 0.07196074 -0.13886218 -0.094990775 0.03324569 0.00096363376
-0.07509487 0.03054235 -0.109144114 -0.016227825 -0.15693249 -0.015971616 -0.12880781 0.06831117
-0.059928603 -0.08282773 -0.04089132 -0.0071737757 -0.13075607 -0.02956134 -0.016407538 -0.04961767
0.043783348 -0.03139574 -0.043944526 -0.073806904 0.028150283 -0.06675076 -0.051221393 -0.050876837
0.07174383 -0.1385206 -0.13802144 0.02939599 0.078016974 -0.04794185 -0.06593875 -0.060490087
-0.06444505 -0.10141248 -0.031680055 -0.14401321 -0.061545804 0.023426212 -0.080024764 0.0033830889
-0.07089051 -0.097569406 0.04267287 -0.006284312 0.0019249336 -0.001327401 -0.055202283 0.0203659
-0.14115858 -0.024504635 -0.021628726 -0.05793569 -0.0006488357 -0.10139845 -0.052378878 0.03568024
-0.0031764822 -0.05229157 -0.035521176 0.0074823857 0.0017346574 0.05075495 -0.043188408 0.0208799
-0.16596101 -0.08475179 -0.1143754 0.009991589 -0.0055095074 -0.065121144 -0.0292821 0.035937153
-0.13249858 -0.030919563 0.06828996 -0.013916138 -0.049214453 0.029097589 -0.014818618 -0.09497209
-0.11153719 -0.02449154 -0.09494746 0.08834144 -0.094916135 -0.12674755 0.013844541 0.029873505
-0.027276915 0.07423774 -0.016631935 -0.06919412 -0.06540301 -0.080798976 -0.043178637 0.020022117
0.011052933 -0.02501156 -0.13382238 0.061596844 0.02840708 -0.035965033 0.041843526 -0.09508874
-0.0748844 0.02709037 -0.025008699 0.014681097 -0.08503727 -0.011895844 -0.043117978 0.011220386

network_body.linear_encoder.seq_layers.0.weight f4 [256, 35]
00000000: 4ae5 8cbb fb99 fc3e 3418 d4be 470c 23be
00000010: cb18 613e 1417 40bd 522a 083e 447e 6fbe
00000020: 993c 823d 0cdc 81be 0b90 d03d 57f6 9f3d
00000030: 30fb 11be a7e4 95bc 652e f93c 71c4 a5be
00000040: e866 5a3d 0bc1 273d c174 373d e41f 013e
00000050: 370e acbd 847b 07be 2ab0 a03d f45a 503d
00000060: 8c96 cc3d aaa4 f73d 1e2e 92be eacc 07be
00000070: 8baf 883b 8085 db3d da53 293d 9a26 c13d
00000080: 4d3b c5be e159 41be 6cdb 423c c742 96be
00000090: 72cf 5d3e 61ca 94bd c91f 4d3e c7d8 f83d
000000a0: 991c a7be 5de1 e73d edfc e73d af5a 633e
000000b0: b0ac 743e 667e 90bd 9170 723c 5342 d13d
000000c0: 42a0 34be fc81 12be b6af 1fbe c482 323e
000000d0: 41b1 babe f8ff a83e 7443 933d 349d f0bc
000000e0: 1567 153e 20d6 ac3e 9d64 ebbd d110 ad3e
000000f0: 0f52 443e ec46 4c3e 3255 02be c6f5 85bd
00000100: c764 523e f7f3 21bd 5156 0f3e 7471 97be
00000110: 7ebf 9b3e f932 8d3e ea55 f53d 0906 e43d
00000120: 3b6e 82bd 34d0 f2be 5bab 3dbb 4cb1 0c3e
00000130: 8907 1ab9 cfc6 c5bd 4e13 99bc ad89 3c3e
00000140: 5c3c 09bd 0f9c a1bd 7db0 47be 7faf e4bd
00000150: 742a 203e ce4f bcbd aeb2 1cbd 0ea9 4f3e
00000160: 100e 953b 0015 09be 8d91 a13e 57b7 883d
00000170: f9b7 80be d64f 7b3e 8e5b b03c a58d 723e
00000180: 44d2 60be c8b1 8c3e 15b7 86be d87f bdbc
00000190: fa9e 4b3e 78fd 783e 9603 5cbe 3298 843e
000001a0: b5e4 02bd 1dc3 273d 008f 0ebe 5ee7 65bd
000001b0: 936d 83be fb0d d3bd c253 56bc 846c 4bbe
000001c0: 1919 b0be 2491 923e c116 963e 8813 ef3c
000001d0: ef0e 623e 06fa 933e 836b cc3e 5b0f 8abe
000001e0: e907 7f3e 6dad a93d 8899 92bd febf f33d
000001f0: 659b b33d ab92 4dbe f28c 2fbe e95a 45be
00000200: 359c d2bd e088 b9bd d873 09be 4a62 053d
00000210: 70fe a2bc 8ea5 6d3e e1c0 45bd 246f 163e
00000220: 3e8e 53be 2f10 a3be 3da0 ce3c 9933 c93c
00000230: 4dd8 ef3d c69e 903b b7cd ac3d 81b5 86bc
00000240: bdd5 05be 9bcd ca3e 8aa2 0b3d d659 233e
00000250: c399 553e cd6d 9bbd 9451 763e 182b 36be
00000260: d132 123e 129d 563e b9ab b2bd 8731 d33d
00000270: 4ae3 41be f767 10be 88ec 79be c1d9 17bd
00000280: 0a5a 793c 1c35 47be 3eda c0be 8e33 d13c
00000290: 8d90 383e dbad b8be b9a1 9d3e c743 0dbf
000002a0: ba34 24be caa5 483e 3afd 293d 5dc9 c43d
000002b0: 841a 8bbd fb19 4d3d 4755 87bd a587 0ebe
000002c0: 94ff ce3d 5bd9 d23e e2ce cc3d 04b5 103e
000002d0: 993f b33e 72d0 39bd 5a33 9d3e 7676 b0be
000002e0: 0afe b6bd 576e 073f 255c c9bc 8163 013e
000002f0: 71fe 88be f8d7 22be 03ad 203e d1cc 9e3d
00000300: 5ca7 503e b40a f03d e38f 403e c368 cdbd
00000310: 4ad4 5e3d b3cf 7a3e 9570 5abe f513 353b
00000320: eaf9 1a3e 3ccb e9bc 18c0 0abe a0eb 0abe
00000330: 7a23 91bd 2edb c33e 2025 723e 3435 1c3e
00000340: 2969 61bd 623b 583e 1504 6c3c 73dd 53bd
00000350: c539 3abc b35a 5dbe b54d 09be bf9d 803e
00000360: 1c5d 7d3d ab25 04be ee38 123e 1920 b3bd
00000370: 1221 b6bd 16e1 e6ba 1d82 6e3e 1fa9 48bd
00000380: b9ba 78be 77ea 05be e8a8 ba3d 43a2 8bbe
00000390: 0289 2c3e 106a 863d 584e ebbc cf3a 003e
000003a0: 802b 493e 25ac 0b3e 5095 bdbd 59c7 01bd
000003b0: 4925 e23d a8d1 86bd 7b1c 1e3d fa61 e4bc
000003c0: b36c e3bd b866 32be ca07 b23b 1a21 a83d
000003d0: 8e00 07bf f0e4 ea3e 3967 71be 8759 6bbe
000003e0: 4ee4 15bf 0e8a 1ebe 611a 1fbc ffe4 c73d
000003f0: fb30 113f cfc5 8ebe 2cd3 ae3d cc62 6a3d
-0.0042997943 0.49336228 -0.41424716 -0.15922652 0.21982114 -0.04689701 0.13297394 -0.2338801
0.06359214 -0.25363195 0.10183724 0.078106575 -0.14255977 -0.018297506 0.03041763 -0.32376435
0.053320795 0.040955584 0.04478908 0.12609822 -0.08401149 -0.13230711 0.07846101 0.05086799
0.09989652 0.12091954 -0.2855081 -0.13261762 0.004171317 0.107188225 0.041339733 0.09431191
-0.38521805 -0.18881942 0.011893135 -0.29347822 0.21661165 -0.07265163 0.20031656 0.12150722
-0.32639006 0.113222815 0.11327539 0.22202562 0.23894 -0.070553586 0.014797346 0.102177285
-0.17639259 -0.14307398 -0.15594372 0.17432696 -0.3646336 0.3300779 0.071906 -0.029371835
0.14590104 0.33757114 -0.114938 0.33801892 0.19171928 0.1994893 -0.12727812 -0.06541018
0.20546256 -0.039539304 0.13997771 -0.29578745 0.30419534 0.27577952 0.119792774 0.111339636
-0.06368681 -0.4742447 -0.0028941247 0.13739508 -0.00014689392 -0.0965706 -0.018685963 0.18411894
-0.03350483 -0.07891094 -0.19500919 -0.11166286 0.15641195 -0.09194909 -0.03825634 0.20279333
0.0045487955 -0.13386917 0.3155636 0.06675594 -0.2514036 0.24542174 0.021528032 0.23686846
-0.2195521 0.27479386 -0.26311556 -0.02313225 0.19884863 0.2431544 -0.21485743 0.25897366
-0.031956393 0.04095756 -0.13921738 -0.056128852 -0.25669536 -0.10305401 -0.013081493 -0.19865614
-0.34394148 0.28626359 0.29314235 0.029184118 0.22076009 0.2890169 0.39925775 -0.2696484
0.24905361 0.082850315 -0.0715819 0.11901854 0.087698735 -0.2007548 -0.1714361 -0.1927296
-0.102837004 -0.0905931 -0.13423097 0.03256444 -0.019896716 0.23207685 -0.048279647 0.14690834
-0.2065973 -0.31848285 0.025222892 0.024560736 0.11711178 0.0044134585 0.084376745 -0.01644397
-0.13069816 0.3960999 0.034090556 0.15952238 0.20859437 -0.07589302 0.24054557 -0.17789876
0.14277197 0.20958355 -0.0872416 0.10312181 -0.1893436 -0.1410216 -0.24406636 -0.0370729
0.015219221 -0.19453853 -0.37666506 0.025537279 0.18023892 -0.3607014 0.30787447 -0.55181545
-0.16035739 0.19594494 0.04150126 0.096087195 -0.06792167 0.050073605 -0.06608062 -0.13918932
0.101073414 0.41181454 0.10000397 0.14131552 0.3500946 -0.045364805 0.3070324 -0.3446538
-0.08935173 0.5290274 -0.02458007 0.12635614 -0.26756623 -0.15902698 0.15690999 0.077539094
0.20376343 0.117207915 0.18804888 -0.10029747 0.054401673 0.24493293 -0.21332009 0.0027630304
0.15134397 -0.028539293 -0.1354984 -0.13566446 -0.07086845 0.38253158 0.23646975 0.1525467
-0.05503193 0.21116403 0.01440527 -0.051724862 -0.011366312 -0.2161663 -0.13408549 0.2512035
0.061856374 -0.12904994 0.1427953 -0.087463565 -0.088930264 -0.0017614688 0.23291822 -0.04898941
-0.24289979 -0.13077722 0.091142476 -0.27272233 0.1684914 0.065631986 -0.02872388 0.12522434
0.196455 0.13639887 -0.09256995 -0.031684253 0.11042268 -0.065829575 0.03860138 -0.02787875
-0.11104717 -0.17421997 0.0054330574 0.082094386 -0.5273522 0.4587779 -0.23574533 -0.2298337
-0.5855149 -0.15482351 -0.009710879 0.097604744 0.56715363 -0.2788529 0.085363716 0.057223126

network_body.linear_encoder.seq_layers.2.bias f4 [256]
00000000: 55e0 9dbd 31e3 863d c5da 53bd 453f b3bd
00000010: 4a25 7bbc 6089 803c 6aea 4ebd c98b d4bd
00000020: f4a9 51bc e67b debd f3d0 dcbd 3712 debd
00000030: 68c2 a5bd 1831 19be e464 25bd 4a32 a5bd
00000040: 5338 4fbd 22db fdbd 2b42 9dbd c0c7 05be
00000050: aabe 3fbd da08 ecbd 4545 a4bd 8ac3 c0bd
00000060: 91b8 51bd 9f3a 0dbe 1787 ddbd 5133 ffbd
00000070: e4f6 443c e9f7 eabd 7f2b ae3c 35b2 dabd
00000080: 2494 bbbc f4de a43c 2de1 25be 2925 15bd
00000090: fd46 45bd b292 0ebd ee2d 3abd 6dba c4bd
000000a0: 7913 abbd c08c 3ebd d096 53bd ac49 37bd
000000b0: 202f c13c 68cc d0bd d8cd fbbd eaeb 02be
000000c0: e1f7 74bd c10e bdbd d3ac d8bd a03d c1bd
000000d0: 62e3 ddbd f5d1 a4bb 43ac d0bd 8895 b5bd
000000e0: 451b dcbd 4aed 08be afda 11bd 0d7c 01be
000000f0: 1dff dabd 1ecc c2bd 829d d3bd 0df6 ac3c
00000100: b13f 2cbd 222d 70bd f19f 0cbd f275 f5bd
00000110: 103f b1bd 2a18 2dbe 0641 87bd 485e 83bd
00000120: d2bd d5bd 2c65 4fbd 3299 dbbc 9073 4bbd
00000130: 53bf 2cbd 66f5 debd c310 99bd 6c50 19bd
00000140: 7045 3dbd 0a17 4dbd 1cdd 82bd 287d dfbd
00000150: 3098 8bbd 6675 adbd ddd7 b8bd 05ec ffbd
00000160: a64e d5bd 1baf 03be f46d 21bc 51f3 03be
00000170: 3a9c 14bd 4061 16bd ce07 5fbd 273e b5bd
00000180: 9f63 93bd 61a4 aebd 0537 d2bd 6c35 06be
00000190: 9241 83bd 146e b6bd fa16 02be 284a 30bd
000001a0: 33e3 04be edba b3bd 3d2d 14be caae 82bd
000001b0: e6aa 91bd 3eae 09be 06c0 d9bd 7909 0cbc
000001c0: e034 babd ea1e 4dbd 404d d33c dac9 92bd
000001d0: 69e7 30bd 95fa 13be 7cd5 30bd 3390 95bd
000001e0: 0b84 83bd 10ae 2b3d 09f9 4bbd 8830 acbd
000001f0: 6ed7 79bd 5e41 0ebe 4f38 bdbd df90 12be
00000200: 5701 3abb c66e 05be 4ddc 0cbd 03a1 0bbe
00000210: 31d2 05be 79ae 84bd bc00 8abd 920a a9bd
00000220: db6b f1bd dc5b dbbc ac23 c3bd f3f8 cebd
00000230: f13a c5bd 52a1 baba 7039 4cbc 0bb3 e1bd
00000240: ecbb 0bbd 2f95 22bd 5805 cdbd cd1a c3bd
00000250: 4700 f1bd 608e 353d 3581 debd 90bd e93c
00000260: f007 86bc 8e73 afbd 0e51 90bc 79ec 2cbd
00000270: 1831 93bd b6ad 99bd ee35 0bbe 6a3d 06bd
00000280: 121c 4cbd 9277 43bd a15a 04be ffb0 ddbd
00000290: 7cfa 5dbd 1b97 29bd 40ae 653d 391d e8bd
000002a0: 1c9b aabd 604b c4bd 7b77 c3bd d541 e6bd
000002b0: 5ce6 1cbd 717e 42bd 5c26 edbd 566d a53b
000002c0: 2072 7abd 7a33 5cbd 6cfb 2abd c394 b0bd
000002d0: 4dd6 343b e31a 40bd a82f adbd c46f 44bd
000002e0: 34d0 1abd 9096 95bd dfc7 f0bd e4dc e4bd
000002f0: 8149 aabd 878b 8d3b 33dd abbd ec36 93bc
00000300: d758 eebd 0de1 c9bd 98c2 e8bd 33b8 aabc
00000310: 66ff 90bd cc83 efbd 34e5 c7bd fa1a 38bd
00000320: 0430 03be 6301 8bbd ee2b 8c3c cd23 f7bd
00000330: 33cd b7bd 1ec8 04be e273 cebd d62f 55bd
00000340: 08a3 183d 2c86 25bc d251 13bd 1997 f0bc
00000350: f728 17be 197a 183a 2952 4cbc b93f bdbd
00000360: 8a88 11be 9745 c7bd 51e9 8bbd 856a dcbd
00000370: 2b50 a8bd e4b8 85bd 326a fdbc 5a8f eebd
00000380: 775c f6bc 13e6 babd 7c85 bebd eb08 9fbd
00000390: 319c a0bd 2b81 85bd 02a3 25bd 736e b6bd
000003a0: 252e 3bbd 21a0 b13b 373e ddbd fd5f 44bc
000003b0: 8596 21bd 1df6 a2bd d3ec b8bd cd49 c4bd
000003c0: c437 f7bc 2471 04be 6ec5 19be 8ff1 80bc
000003d0: 2189 19be b4db debd df86 583d 7a67 a5bd
000003e0: f2e5 563d 5ab9 3bbd 4050 a9bd aec6 89bd
000003f0: e433 8fbd d9d2 04bd 3ac4 9fbd c42c 5dbc
-0.077088036 0.06586302 -0.051722307 -0.08752302 -0.015328715 0.015690506 -0.050516523 -0.103782244
-0.012796868 -0.108634755 -0.107820414 -0.10843318 -0.08093721 -0.14960134 -0.04037942 -0.080662325
-0.050590824 -0.12395312 -0.07678636 -0.1306448 -0.04681269 -0.11525126 -0.080210246 -0.09412296
-0.051201407 -0.13791893 -0.10816782 -0.1246096 0.012021754 -0.11473066 0.021260975 -0.106785215
-0.022897787 0.020125844 -0.16199179 -0.03641239 -0.048163403 -0.03480787 -0.04545396 -0.096058704
-0.083533235 -0.04652095 -0.051657498 -0.044747993 0.023582041 -0.101952374 -0.12295121 -0.12785307
-0.05980671 -0.0923133 -0.105798386 -0.09435582 -0.108343855 -0.0050299116 -0.10189106 -0.088664114
-0.10747389 -0.13371769 -0.035608944 -0.12644978 -0.1069319 -0.095115885 -0.103327766 0.02111342
-0.04205293 -0.058636792 -0.03433222 -0.11985387 -0.08654606 -0.16903749 -0.06604199 -0.06414467
-0.10436596 -0.050633594 -0.026806448 -0.049670756 -0.04217465 -0.1088665 -0.074739 -0.037430212
-0.0462088 -0.0500708 -0.063898295 -0.109125435 -0.06816137 -0.084696576 -0.09025548 -0.12496189
-0.104153916 -0.12859766 -0.009852875 -0.12885787 -0.0362818 -0.03671384 -0.054450803 -0.08849745
-0.071967356 -0.085274465 -0.102644004 -0.13106316 -0.06408991 -0.089077145 -0.12704077 -0.04303947
-0.12977295 -0.08775888 -0.14470382 -0.063809946 -0.071126744 -0.13445374 -0.10632329 -0.00854718
-0.09092116 -0.05007831 0.025793672 -0.071674064 -0.04318944 -0.14451058 -0.043172345 -0.073028944
-0.064216696 0.041914046 -0.049798045 -0.08407694 -0.060996465 -0.13892123 -0.09239256 -0.14313076
-0.0028382146 -0.13030538 -0.034389783 -0.1363564 -0.13068463 -0.064785905 -0.06738421 -0.08253969
-0.1178815 -0.0267772 -0.09528288 -0.10106077 -0.09630383 -0.0014238751 -0.012464866 -0.11020478
-0.034114763 -0.039693054 -0.10010785 -0.09526596 -0.11767631 0.044325233 -0.10864488 0.028532773
-0.016361207 -0.08566962 -0.017616775 -0.042217705 -0.07187098 -0.07503836 -0.13594791 -0.032773413
-0.049831457 -0.047721453 -0.12925197 -0.10824775 -0.05419396 -0.04140387 0.05607438 -0.11333699
-0.08330366 -0.09584689 -0.095442735 -0.11243025 -0.038305625 -0.047483865 -0.11579582 0.0050484343
-0.061143994 -0.05376003 -0.04174368 -0.08622124 0.0027593554 -0.04690064 -0.08456355 -0.04795815
-0.037796214 -0.07304108 -0.117568724 -0.11174944 -0.08314801 0.0043196115 -0.083918 -0.017970525
-0.116380386 -0.09857378 -0.11365241 -0.020839786 -0.070799634 -0.1169506 -0.09760514 -0.0449476
-0.12811285 -0.06787374 0.017110791 -0.12067375 -0.089746855 -0.12966964 -0.10080697 -0.052047573
0.037264854 -0.01010279 -0.0359667 -0.029368924 -0.1476172 0.0005816534 -0.01247076 -0.0924067
-0.14212242 -0.0973007 -0.06831611 -0.107625045 -0.08218416 -0.06529406 -0.030934427 -0.11648436
-0.030073388 -0.091259144 -0.09302804 -0.07765373 -0.07842291 -0.065187775 -0.04043866 -0.08907785
-0.045698304 0.0054207 -0.10802882 -0.011985776 -0.039450187 -0.07957099 -0.09029546 -0.09584389
-0.030177958 -0.12933785 -0.1501672 -0.015740184 -0.14993717 -0.10881749 0.052862998 -0.08076377
0.052465387 -0.045831062 -0.082672596 -0.06727348 -0.06992319 -0.032427642 -0.07801099 -0.0134994425

network_body.linear_encoder.seq_layers.2.weight f4 [256, 256]
00000000: bfbf ca3d 4c8e de3d feb9 3cbe 1e66 903d
00000010: e074 03be 0951 64bc 718f b5bc 1a2a 21be
00000020: 9670 96bc 6dce 403d f6c6 bbbd f474 cd3d
00000030: 2270 5bbd 0860 2b3d 6a11 63be 446e 16bd
00000040: ea2b eabd 33ea 9cbd b003 12bd 4058 3fbe
00000050: a7a6 62be 55ae bcbd 0986 5c3c 6667 f1bd
00000060: 0ebc 42bd b2a7 8bbc 26bc 80bd b9c1 78bd
00000070: d500 3dbe 7d2b 363c 732d 09bd 968f f13d
00000080: 4cda 2abe aaf8 9cbd b701 3ebe 340e 8d3d
00000090: 0d1d 90bd 1b25 40bd 3673 42be d807 88bd
000000a0: 4af9 01bd 1e33 aebb 5d9c 653c 3d14 a4be
000000b0: cfd1 ca3b a6b9 e9bd 9bc3 cbbd d6ce 87bc
000000c0: 4fee c6bd da5f 16be 996a e3bc d1c6 c43c
000000d0: 5f2f 0dbd 7c2a 183b 3f93 eebd 5bf5 803e
000000e0: d402 fcbd c433 db3d be8d 43be 97ec 5ebd
000000f0: 6cd8 12bd 5599 a23b 102c a8be e279 063d
00000100: 5aec 2fbd eaf6 d1bb cb3c 83be 3e03 1d3e
00000110: 0c11 753d e66a 0cbc b57a 973d fc23 e13c
00000120: 2df1 3abe 791e 9d3d c0f0 d1bd 1d15 39bd
00000130: c087 593d 58c2 eabd 7e93 91bc f42c e0bd
00000140: dd1f a5bc 5436 d73d dde3 e7bd 3dae b3bd
00000150: 6fbf 92bc 7afb dbbb ddd1 07be 8eaa a03b
00000160: c578 6c3d 6a82 593c dbd6 913d fc39 dbbd
00000170: 0885 9cbe 92a2 abbd 41aa 4fbd db42 78bd
00000180: 1365 7a3d 216a 173e 418b d4bd a5d9 173d
00000190: dac1 dfbc 98f3 df3c da05 99bd 9df1 063e
000001a0: adc2 75bc 9803 bf3c a13c ebbd c7ae a63d
000001b0: 5d57 19be f86f 493d b9d8 4e3b 1d5e 32bd
000001c0: 4458 af3c d6e2 33bd dfe6 973d 5ba8 cfbd
000001d0: 8ea0 74bc 5b7a 05bd b566 75bd 898e c7bd
000001e0: 3eca 08bd c739 31be 09ae 02be 1fcd 0dbe
000001f0: 596a 723e fffe e0bc 97df e93d cca1 32be
00000200: 7786 96bc 6316 e2bd c89e 82be 21e2 673d
00000210: a59a 96bd 886b 443d d208 173d 823f 783d
00000220: d529 aa3d d3d3 90bd b060 a93d 4f27 f1bd
00000230: 96d3 04be cbec 75bc ccb4 f83d d3aa bdbd
00000240: 4e85 83bd 9b48 c2bd 1d65 883c d24c 973d
00000250: 6b2f a0bd 18e7 28bc 4315 09bc 8da7 f93c
00000260: e379 883d 8b2e b8bd 52b3 493c 0fbd e5bd
00000270: 4350 1dbd 64fb f5bc d35b 28be fb12 43be
00000280: 989f 8fbc a5a0 273d c82d c0bd e0d2 1dbe
00000290: 15bc 1e3e 53fd c3bd ddda 8bbd a172 91bc
000002a0: cb7a 013d 13e2 e8bd c43e 8ebd 5edf 0bbe
000002b0: 335e 99be fe0f 11bd 308d 323e b4f9 39bd
000002c0: 7d29 00bd 3539 2b3c c78b 483d b7f5 04bb
000002d0: 687c e63b ce82 d2be 39ff 83bd 7074 b93d
000002e0: 2ab3 96bc 9577 1ebc 8342 7a3d 310d a2bb
000002f0: adc2 f1bd 3f7e 08bd 57d6 3dbe 6130 bb3d
00000300: 535c 39be af50 953d f338 f13d f8e6 49bc
00000310: 9839 163c 3195 4a3d ee62 04be 455a 983d
00000320: d3ce a5bd 04de 20bc bfe5 cc3c e6a5 abbd
00000330: 09e9 19bb 0c13 8bbc 1767 c2bd a25b 49bc
00000340: 6ccb ccbc 24e7 073d cf29 ccbd 5409 cf3c
00000350: 4499 2c3e 4bbd 723d 3797 a23d 8ecd babd
00000360: 368f fdbd a420 d2bb 364f c5bd 2f77 1bbe
00000370: b49e 7b3d a3c2 893c b649 3f3e fd2b 943c
00000380: b536 6ebd 5ee0 70be cd43 47be 7f9b d5bd
00000390: 7fb5 4abe 0c17 ccbd 82ef 413e 0384 4ebc
000003a0: 0fe1 52bd 0e06 873d 2366 223d b8fd d8bc
000003b0: 93ad d63d 88c5 61bd 4d4f ea3d 11d9 86bd
000003c0: 9f98 33be 9719 0cbe ebc4 693d e70e 1f3e
000003d0: 0851 9f3d 381c 98bd f2a2 3abe 8185 4c3d
000003e0: b0ff 14be 499e 21be 1ec7 12bd d9b0 bebc
000003f0: 6b65 2dbe 934a 34bd 0b0e 15be 05af 30bc
0.09899854 0.10866985 -0.18430325 0.07050727 -0.12837553 -0.013935336 -0.022163125 -0.15738717
-0.018364232 0.047071863 -0.09168808 0.10032073 -0.053573735 0.04183963 -0.22174612 -0.03672625
-0.11434157 -0.076618575 -0.035648048 -0.18686008 -0.22133885 -0.09212939 0.013459691 -0.117873
-0.047542624 -0.017047737 -0.062858865 -0.060731623 -0.18457349 0.011118767 -0.03349061 0.11794965
-0.16684836 -0.076646164 -0.18555342 0.06887475 -0.07036791 -0.046910387 -0.18989262 -0.06642121
-0.03173188 -0.0053161522 0.014014331 -0.3204669 0.006189562 -0.11412363 -0.09949418 -0.01657812
-0.097134225 -0.14685002 -0.02776079 0.024020584 -0.034469005 0.0023218682 -0.11649179 0.2518719
-0.12305227 0.10703233 -0.19097039 -0.05442485 -0.035850927 0.0049621263 -0.32846117 0.03283108
-0.04295001 -0.0064076083 -0.2563232 0.15333268 0.05983071 -0.008570408 0.073964514 0.027482979
-0.18256064 0.07671828 -0.102509975 -0.04518615 0.053107977 -0.114628494 -0.017770525 -0.10946074
-0.020156795 0.10508409 -0.11322758 -0.08773468 -0.017913548 -0.006713328 -0.1326365 0.004903144
0.057732362 0.013275722 0.071210586 -0.10704419 -0.30570245 -0.08380617 -0.050699476 -0.060610633
0.061131548 0.14786579 -0.10378123 0.037072796 -0.027314115 0.027337834 -0.07471819 0.13178106
-0.015000028 0.023317143 -0.114861734 0.08138805 -0.14974733 0.049179047 0.0031562282 -0.043546785
0.021404393 -0.0439175 0.07417082 -0.10139533 -0.014930857 -0.03258739 -0.059912402 -0.09743983
-0.033396 -0.17307197 -0.12761702 -0.13847779 0.23673381 -0.027465342 0.114195995 -0.17444533
-0.018374665 -0.11039426 -0.25511765 0.056612138 -0.07353715 0.047954112 0.036873646 0.06060744
0.0830876 -0.07071652 0.08270395 -0.11775076 -0.12971339 -0.015010069 0.12143859 -0.09261098
-0.0642191 -0.09486505 0.016649777 0.07387699 -0.07821544 -0.010309003 -0.008366886 0.030475402
0.06663873 -0.08993252 0.01231082 -0.11217701 -0.03840662 -0.030027099 -0.16441278 -0.19050209
-0.017532155 0.040924687 -0.09383732 -0.15412474 0.15501435 -0.09569802 -0.06828854 -0.017754855
0.031611245 -0.11371245 -0.06945565 -0.13659427 -0.2995468 -0.035415642 0.17436671 -0.04540415
-0.031289566 0.010450651 0.048961427 -0.002028806 0.0070338733 -0.4111542 -0.06445164 0.09055412
-0.018395979 -0.009672065 0.061098587 -0.00494542 -0.118047096 -0.033323523 -0.18538795 0.09140087
-0.18101625 0.0729078 0.1177844 -0.012323134 0.009169005 0.049458686 -0.12928364 0.074390925
-0.08096089 -0.009818558 0.025011895 -0.08381252 -0.0023484847 -0.016976856 -0.09492319 -0.012289913
-0.024999343 0.033179417 -0.09968912 0.025273003 0.16855341 0.059262555 0.07938998 -0.09121238
-0.12380831 -0.0064125825 -0.09634249 -0.15182184 0.061430648 0.016816443 0.18680462 0.018087381
-0.05815764 -0.2352309 -0.19459458 -0.10430049 -0.19795798 -0.09965333 0.18939021 -0.012604716
-0.051484164 0.06592952 0.039648186 -0.02648817 0.104823254 -0.05512002 0.11440907 -0.06584371
-0.17538689 -0.13681637 0.05707256 0.15533029 0.07779127 -0.07427257 -0.18226221 0.049932007
-0.14550662 -0.15783037 -0.035834424 -0.023277687 -0.16933219 -0.044016432 -0.14556138 -0.010783915

network_body.vector_processors.0.normalizer.running_mean f4 [35]
00000000: c2b5 013f 723d f43e 0673 853c 141d 5e3e
00000010: f188 f53e bd1c 043f 2a63 8f3b 0fdc 7c3e
00000020: 75c2 553f ea34 273e aea9 e03a 6603 143e
00000030: 194d 453f 435c 693e 7161 b73a d919 663e
00000040: 9de5 413f db12 623e 37b6 b23c c984 3b3e
00000050: 1eb6 b73e fb9d 003f c11b 0e3e 90d0 4c3e
00000060: 0bef bb3e 4067 1a3f 7c27 f43c d63f 073e
00000070: b2db cf3e 9c79 8d3e 8eaa a23e 8507 b63e
00000080: 045a 843c 838b 033d bc32 d93d
0.50667965 0.4770313 0.016290199 0.2169078 0.4795604 0.5160635 0.004375835 0.2469332
0.8349984 0.16328779 0.0017140412 0.14454421 0.77070767 0.22789101 0.0013990832 0.22470798
0.7574099 0.22077505 0.021815402 0.18312372 0.35881132 0.5024106 0.13877775 0.20001435
0.36705813 0.60313797 0.029803984 0.13207945 0.40597302 0.27631843 0.31770748 0.35552612
0.016156204 0.03211547 0.1060538
