Assets/Testing/Lijevo.onnx (onnx, 304843 bytes, 9 tensors)

62 f4 [35]
0	0x3ef96557	0.4871013
1	0x3efbd601	0.4918671
2	0x3e1991e9	0.14997067
3	0x3e63560d	0.22200795
4	0x3ee21861	0.44159225
5	0x3ee150d3	0.44006976
6	0x3d5a2bdc	0.053264484
7	0x3e1856a1	0.14876796
8	0x3ee37be8	0.4443047
9	0x3ee30603	0.44340524
10	0x3d2a673d	0.041602362
11	0x3e1c4a52	0.15262726
12	0x3ee08b3d	0.4385623
13	0x3ee0470d	0.43804207
14	0x3cfbf7d2	0.030757818
15	0x3dfcffc4	0.12353471
16	0x3ea6e613	0.32597408
17	0x3ea4c24d	0.3217949
18	0x3d73b416	0.059497915
19	0x3e0cb318	0.13740194
20	0x3eefcf2d	0.4683775
21	0x3ef6e5e0	0.48222256
22	0x3e4f5fda	0.20251408
23	0x3e661d84	0.22472197
24	0x3eff2858	0.49835467
25	0x3efebac2	0.4975186
26	0x3dc44db3	0.095851324
27	0x3e696678	0.22792995
28	0x3eee652c	0.46561563
29	0x3eff814a	0.49903327
30	0x3ed1b908	0.4096148
31	0x3ec750ec	0.38928926
32	0x3ed0bf00	0.4077072
33	0x3b2f5466	0.0026753186
34	0x3ea739e9	0.3266137

action_model._continuous_distribution.log_sigma f4 [1, 2]
0	0xbf9724bc	-1.1808085
1	0xbfb44ae1	-1.4085351

action_model._continuous_distribution.mu.bias f4 [2]
0	0x3da3db81	0.080008514
1	0x3e7acee2	0.24492982

action_model._continuous_distribution.mu.weight f4 [2, 256]
0	0xbb667fd9	-0.0035171418
1	0xbd14671b	-0.03623114
2	0x3b03d02c	0.0020113094
3	0xbdca6735	-0.098829664
4	0xbcd26c5b	-0.025686434
5	0x3e04db38	0.1297425
6	0xbd6aa776	-0.05728861
7	0xba520bae	-0.00080126047
8	0xbcb58e71	-0.022162648
9	0xbda15993	-0.07878413
10	0xba8960a4	-0.0010481072
11	0xbd1018fe	-0.035180084
12	0x3d345fcd	0.044036675
13	0x3d0a0bd1	0.033702675
14	0xbad8c138	-0.0016537076
15	0xbccb718d	-0.024834419
16	0x3c6bd41d	0.0143938335
17	0x3cbb6d70	0.022879332
18	0xbca507b2	-0.020145271
19	0x3d26e51f	0.04074585
20	0x3ac144c1	0.0014745222
21	0xbca4375d	-0.02004593
22	0xbd36fb64	-0.04467334
23	0xba1d8225	-0.0006008468
24	0xbd6ad7c3	-0.057334673
25	0xbdfe5b2e	-0.12419735
26	0x3e01972b	0.12655322
27	0xbccc6149	-0.024948733
28	0x3b382876	0.0028100288
29	0x3b733add	0.0037113943
30	0x3d05ee2a	0.032697834
31	0xbd139910	-0.036034644
32	0x3bbc3711	0.005743869
33	0xb8a50696	-7.86904e-05
34	0x3cea862c	0.028628431
35	0x3c75183d	0.014959392
36	0xbde67865	-0.11253432
37	0xbb429a66	-0.002969408
38	0xbe634fbc	-0.22198385
39	0xbe16e7b5	-0.14736827
40	0x3c12d0e8	0.00896094
41	0xbe24b7d0	-0.16085744
42	0x39aa63b0	0.000324992
43	0x3d403cc3	0.046932947
44	0x3e3332fa	0.17499915
45	0x3e044a9d	0.12919088
46	0x3dd0970c	0.1018506
47	0xbd0b780d	-0.034050036
48	0xbdbb27c8	-0.09138447
49	0x3a27740c	0.0006387837
50	0xbdafa246	-0.08575873
51	0xbc5b449e	-0.013383059
52	0xbd038b04	-0.032114998
53	0x3acdef56	0.0015711586
54	0x3c3954f2	0.011311756
55	0xbe173f52	-0.14770249
56	0xba0e43f4	-0.0005426996
57	0xbe43af10	-0.1910975
58	0xba464a40	-0.00075641647
59	0xbce921ed	-0.02845856
60	0xbd8d4db0	-0.06899583
61	0x3e624a8d	0.22098751
62	0x3d043854	0.03228028
63	0x3d55513f	0.052079435
64	0x3a210f79	0.0006143968
65	0xbdaa00fb	-0.08300968
66	0x3a6ba3a0	0.00089889206
67	0x3e3f463f	0.1867914
68	0xbe208e4c	-0.15679282
69	0x3d8ec09b	0.0697033
70	0xbd406503	-0.046971332
71	0xbcdd4d5c	-0.027014427
72	0x3c37770f	0.011197819
73	0xbcd23186	-0.02565838
74	0xbdf41b91	-0.119193204
75	0xbce0b623	-0.0274306
76	0xbd8a8492	-0.06763567
77	0xb8f1a8b6	-0.000115232004
78	0x3d247bd9	0.040157173
79	0xbdbf005e	-0.09326242
80	0x3d8856f7	0.06657212
81	0x3d0739b7	0.033014026
82	0xbda8647e	-0.08222292
83	0xbcc3bf0e	-0.023894813
84	0xbe514e8c	-0.2044012
85	0xbbc630c1	-0.0060482924
86	0xbd677529	-0.056508217
87	0xbd9da0b2	-0.07696666
88	0x3ac17d33	0.0014762044
89	0xbcae0e9f	-0.021247206
90	0xbd7bc2f9	-0.061465237
91	0xbde988ee	-0.114030704
92	0xbdcf17b0	-0.1011194
93	0xbc3dafb2	-0.011577534
94	0xb803f82c	-3.1463962e-05
95	0xbd310bc2	-0.043224104
96	0x3e289cfd	0.16466136
97	0x3a2de953	0.0006634194
98	0xbca92344	-0.020646699
99	0xbdb7c13b	-0.08972403
100	0x3d2797ef	0.04091638
101	0xbd53f7f1	-0.051750127
102	0xbb85b31d	-0.00408019
103	0xbd46f114	-0.048569754
104	0xbdafebc1	-0.08589888
105	0xbd4a4114	-0.04937847
106	0xbd24dfac	-0.040252373
107	0xbd208eee	-0.03919881
108	0x3ddabf9a	0.10681076
109	0xbde169a7	-0.1100648
110	0xbc868302	-0.016419891
111	0x3d7fa5f7	0.062414136
112	0xbbe590b1	-0.007005774
113	0xbdff8d6b	-0.12478145
114	0xb810b34a	-3.449925e-05
115	0xbe2f801e	-0.17138717
116	0xbd327094	-0.043564394
117	0xbd644161	-0.055726413
118	0xbd8d96cd	-0.069135286
119	0x3dac3f09	0.084104605
120	0xbaf967bb	-0.0019028106
121	0xbda43092	-0.080170766
122	0x3e192c2c	0.14958256
123	0xbc48872d	-0.01223926
124	0xbb2a46bc	-0.0025982102
125	0x3d4f885d	0.050667156
126	0xbe057ffc	-0.13037103
127	0xbd85a12c	-0.06524882
128	0xba73aece	-0.0009295762
129	0xbd091a82	-0.033472545
130	0x3d6d68bc	0.05796121
131	0xbd25dd1e	-0.040494077
132	0xbc864401	-0.016389849
133	0x3d88645e	0.066597685
134	0xbd994904	-0.0748463
135	0xba7ec51f	-0.00097187044
136	0x3de62fd5	0.11239592
137	0x3dcb687b	0.099320374
138	0xbcd3fbd5	-0.025876919
139	0x3d994415	0.07483689
140	0xbd79840f	-0.060916957
141	0x3c56449b	0.01307788
142	0xbd7134ab	-0.05888812
143	0xbcad9ac4	-0.021191962
144	0xbd8f2ca9	-0.0699094
145	0x3a8223ab	0.0009928843
146	0xbdee83b9	-0.11646218
147	0xbd23e2f3	-0.040011358
148	0xbbf0d314	-0.007349381
149	0xbe2b7b6e	-0.16746303
150	0xbde25a5a	-0.110523894
151	0xbd165ee5	-0.036711592
152	0xbd27b8e9	-0.04094783
153	0xbccf1a96	-0.025281232
154	0xbb817da5	-0.0039517456
155	0x3af274ba	0.0018497922
156	0xbe10221d	-0.14075513
157	0xbdedf8c2	-0.116197124
158	0xbd33e0c5	-0.04391553
159	0x3bd56aa7	0.006512958
160	0xbb244b61	-0.0025069343
161	0xbc6314d6	-0.013859948
162	0x3a81811d	0.0009880398
163	0xbd7f01e7	-0.062257674
164	0x3cda3d9d	0.026640708
165	0xbd4e2646	-0.05032947
166	0xbd0630af	-0.032761272
167	0x3aef897f	0.001827523
168	0xbd13511e	-0.03596603
169	0x3ae7190e	0.0017631368
170	0x3abc7d4e	0.0014380605
171	0xbe08ed69	-0.13371815
172	0xbc897a6b	-0.016782006
173	0xbc10826f	-0.00882016
174	0xbb500bfc	-0.0031745424
175	0xbceb678a	-0.028735895
176	0x39c4cfcb	0.0003753885
177	0xbe43cc65	-0.19120939
178	0x3e206843	0.15664773
179	0x3dc05561	0.09391285
180	0xb936741d	-0.00017400128
181	0xbda92896	-0.08259694
182	0x3b44ce3a	0.0030030147
183	0xbe1798f3	-0.14804439
184	0xbd8a7311	-0.067602284
185	0xbbce75aa	-0.0063006477
186	0x3a5c0dee	0.00083944097
187	0xbd44e795	-0.048072416
188	0xbd448da4	-0.04798664
189	0xbd8d9544	-0.06913236
190	0xbe21e42f	-0.15809701
191	0xbcaf6dad	-0.021414602
192	0xbc8c04fa	-0.017092217
193	0xbd2f7480	-0.042835712
194	0xbd46b81a	-0.048515417
195	0x3d65f5ed	0.056142736
196	0xbd2167eb	-0.039405745
197	0x3a055812	0.0005086671
198	0x3d0fc3d3	0.035098862
199	0x3dbfd365	0.09366492
200	0x3a4d6747	0.0007835519
201	0xbe0769ca	-0.13223949
202	0xbcc0821b	-0.02349954
203	0xb9bb23ea	-0.00035694177
204	0xbacc573d	-0.0015589964
205	0x3a8cd2bd	0.0010743957
206	0xbcd43770	-0.02590534
207	0xbc2e91ee	-0.01065491
208	0xbd16dd44	-0.03683211
209	0x3b06d8e0	0.0020576045
210	0xbd02f40d	-0.031971026
211	0xbd7f1ea6	-0.062285088
212	0xbbe66ed8	-0.0070322566
213	0xbcb8a59a	-0.022539902
214	0xba76d017	-0.0009415163
215	0xbdc9ade8	-0.09847623
216	0xbd3c1583	-0.045918953
217	0xba1e5204	-0.0006039443
218	0xbda66e61	-0.08126522
219	0x3ab3fea6	0.0013732507
220	0xbd174c0a	-0.03693775
221	0x3e2eed14	0.17082626
222	0xbd74be3e	-0.05975174
223	0x3e308d2b	0.17241351
224	0xbc7a0c49	-0.015261718
225	0x3a842baf	0.001008382
226	0xbd3ab2c5	-0.045580644
227	0x3e1f14a5	0.15535219
228	0xbe487812	-0.19577053
229	0xba6b7911	-0.0008982579
230	0x3e4ba8f3	0.19888668
231	0xbd1b415b	-0.037904125
232	0xbd77a774	-0.06046243
233	0xb83caa6f	-4.498142e-05
234	0x3bc0def1	0.0058859517
235	0xbe40f3d4	-0.18843013
236	0xbde1d315	-0.11026589
237	0xbd68cb8f	-0.056834754
238	0x3a8e676d	0.0010864564
239	0xbdb47711	-0.088117726
240	0xbcbe4ebd	-0.023230905
241	0xbda56afa	-0.08077045
242	0x3de52b19	0.11189861
243	0xbcd9a235	-0.026566604
244	0x3ba673b8	0.0050797127
245	0x3d95c7d0	0.07313502
246	0x3ac6eda2	0.0015177021
247	0xbdc26259	-0.094914146
248	0xbce1f4a6	-0.027582478
249	0xbd1f5dea	-0.038907923
250	0xbe06de3d	-0.13170715
251	0xbc37432d	-0.01118545
252	0x3b944a01	0.0045254235
253	0x3dd2b688	0.10288721
254	0xbccf0538	-0.025271043
255	0xbdf32f18	-0.11874217

network_body.linear_encoder.seq_layers.0.bias f4 [256]
0	0xbcaf1f6c	-0.021377288
1	0xbe80bd73	-0.25144538
2	0xbdadb7e7	-0.08482342
3	0xbe7491a9	-0.2388369
4	0xbb11b167	-0.0022230984
5	0xbdb6f581	-0.08933545
6	0xbe0fff8a	-0.14062324
7	0xbce33fff	-0.027740477
8	0xbd9ad742	-0.075605884
9	0xbe1358ad	-0.14389296
10	0x3c8d5cef	0.017256228
11	0xbca183b0	-0.019716114
12	0xbe24f506	-0.16109094
13	0x3d9c79e4	0.07640436
14	0xbe1c3b35	-0.1525696
15	0xbdcb8c88	-0.099389136
16	0x3c01e55e	0.007928221
17	0x3dd2a90f	0.102861516
18	0x3ce58d78	0.02802156
19	0xbbd9c613	-0.0066459267
20	0xbdb09515	-0.08622185
21	0xbe00c507	-0.1257516
22	0x3cd22b81	0.02565551
23	0xbe32d9e4	-0.17465931
24	0x3d9e6216	0.07733552
25	0xbdb28d51	-0.0871836
26	0xbd1969e1	-0.03745449
27	0xbc8a3e5b	-0.016875437
28	0xbdb8dc4d	-0.09026394
29	0xbdf1a7f0	-0.1179961
30	0x3c524394	0.012833495
31	0xbde9ff5f	-0.11425661
32	0xbe22d748	-0.15902436
33	0xbcd6ccfa	-0.026220787
34	0xbe669e0e	-0.2252123
35	0xbdab7acc	-0.08373031
36	0xbda771da	-0.08176012
37	0x3d1554f3	0.036457967
38	0xbe0928f3	-0.13394527
39	0xbd175d0b	-0.036953967
40	0xbd027797	-0.03185233
41	0xbca2cf9f	-0.019874392
42	0xbcf0fd58	-0.029417679
43	0xbd84a5c8	-0.06476933
44	0xbc708ad5	-0.014681538
45	0xbe262dc0	-0.1622839
46	0xbd1cd41c	-0.03828822
47	0xbbf26cb6	-0.0073982133
48	0x3d2bbb7c	0.041926846
49	0xbe20836a	-0.1567513
50	0xbe14cb12	-0.1453059
51	0xbd6ef791	-0.058341566
52	0xbd380348	-0.044925004
53	0xbd76272d	-0.060095955
54	0xbd94e7ba	-0.07270761
55	0x3db83f37	0.08996432
56	0x3c19a058	0.009376608
57	0xbe5c3b2f	-0.21506952
58	0x3dd6b5b9	0.104838796
59	0x3d2fdce5	0.04293527
60	0xbd96cd67	-0.07363396
61	0xbc0a506f	-0.008442028
62	0xbd8eaa66	-0.06966095
63	0xbd471d4d	-0.048611928
64	0xbe16c103	-0.14722066
65	0xbcc01dbe	-0.023451682
66	0x3d2a31ec	0.041551515
67	0xbd571e95	-0.0525194
68	0xbdca6fde	-0.09884618
69	0xbcf03da8	-0.029326275
70	0xbe006b88	-0.1254102
71	0xbc97e04d	-0.018539572
72	0xbc9fbc1a	-0.019498874
73	0xbdcd11c4	-0.10013154
74	0x3dbe4831	0.09291113
75	0xbd83342d	-0.06406436
76	0x3b520343	0.0032045401
77	0x3e111d6f	0.14171384
78	0xbd7d8675	-0.061895806
79	0x3d1a52f5	0.03767677
80	0x3cc3493b	0.02383863
81	0xbcd672b3	-0.02617774
82	0xbd076c7e	-0.03306245
83	0xbc556494	-0.013024468
84	0xbd98e326	-0.074652
85	0xbc55a404	-0.013039593
86	0xbd9e6f55	-0.07736079
87	0xbdd06eed	-0.101774074
88	0x3cda4d47	0.026648177
89	0xbd9e1b97	-0.07720106
90	0xbe057ac9	-0.1303512
91	0x3bc71913	0.006075987
92	0x3d4442b5	0.04791518
93	0x3db3e9d8	0.087848365
94	0x3d2181ef	0.039430555
95	0xbd6036d4	-0.05473979
96	0xbd445a2f	-0.04793757
97	0xbd9d7f79	-0.07690329
98	0xbde6ddee	-0.112727985
99	0xbdbed249	-0.093174525
100	0x3d8472b0	0.064671874
101	0xbb2033a1	-0.0024444836
102	0x3d2ed5e2	0.042684443
103	0xbe55dac8	-0.2088424
104	0xbccd9632	-0.025096033
105	0xbd1f006b	-0.038818758
106	0xbdf6e0ad	-0.12054572
107	0x3ccb7cb0	0.02483973
108	0xbdb59e5f	-0.088680975
109	0xbde367be	-0.111037716
110	0xbd98820f	-0.07446682
111	0xbcae5605	-0.021281252
112	0xbd9ac8fa	-0.075578645
113	0x3c0de165	0.008659695
114	0xbda09bf2	-0.07842244
115	0xbd32d936	-0.04366418
116	0x3be4db43	0.006984146
117	0xbdf15df7	-0.117855005
118	0x3d808ce0	0.0627687
119	0xbd4934c0	-0.049122572
120	0x3c2496c3	0.01004571
121	0xbca2b816	-0.01986317
122	0xbe34a725	-0.17641886
123	0xbe014098	-0.12622297
124	0x3c9b417c	0.018952124
125	0xbe8b795d	-0.2724103
126	0xbd37c06b	-0.04486124
127	0xbc41800d	-0.011810315
128	0xbc953abb	-0.018216481
129	0xbb87c181	-0.0041429405
130	0xbdd06404	-0.101753265
131	0xbdfe03bc	-0.12403056
132	0xbcb6ee00	-0.022330284
133	0xbd984480	-0.0743494
134	0xbdb2323c	-0.08700988
135	0xbcfb4380	-0.030671835
136	0xbd9ae45b	-0.075630866
137	0xbd6f14e9	-0.05836955
138	0xbd49b0aa	-0.049240746
139	0xbd566029	-0.0523378
140	0xbc9c6e98	-0.019095704
141	0x3db09e06	0.086238906
142	0xbd96affb	-0.07357784
143	0xbd89ddf8	-0.0673179
144	0xbe010578	-0.12599742
145	0xbd579c2d	-0.052639175
146	0xbdb4adc5	-0.088222064
147	0x3d808ccc	0.06276855
148	0xbca77306	-0.02044059
149	0xbd3fadb5	-0.04679652
150	0xbba11c97	-0.0049167383
151	0x3e07b3b0	0.13252139
152	0xbdc36bdd	-0.09542058
153	0x3d5962da	0.053072788
154	0xbbb0da2b	-0.0053971014
155	0xbd3f1784	-0.046653286
156	0xbd2f9dc4	-0.042875066
157	0xbd581134	-0.05275078
158	0xbddc41f6	-0.107547686
159	0x3d2d7b2a	0.042353787
160	0xbd824297	-0.06360357
161	0xbda548de	-0.08070539
162	0xbdfac302	-0.12244226
163	0xbcc6f690	-0.024287492
164	0xbcd21824	-0.025646277
165	0xbe0bcff6	-0.1365355
166	0xbe383af6	-0.17991242
167	0x3d9dae3b	0.076992474
168	0x3d7a31ea	0.061082758
169	0xbe250a9a	-0.16117325
170	0x3ccbccf0	0.024877995
171	0xbc0ce642	-0.00859982
172	0xbbc01829	-0.005862255
173	0xbd810208	-0.062992156
174	0xbe546dda	-0.2074503
175	0x3c451ea6	0.012031233
176	0x3d26946e	0.040668897
177	0xbe05e5c8	-0.13075936
178	0xbdc7661a	-0.09736271
179	0x3d8f644f	0.07001554
180	0x3d0bfc66	0.034176253
181	0xbda79b6d	-0.08183942
182	0xbe13d69e	-0.14437339
183	0xbe26a9b6	-0.16275677
184	0xbe476744	-0.19472986
185	0xbda22ae1	-0.07918335
186	0xbce5c621	-0.028048577
187	0x3dd0be95	0.10192601
188	0xbc855f10	-0.01628068
189	0xbd8e80ea	-0.06958182
190	0xbbd2ba0a	-0.006430869
191	0xbe0a98f3	-0.13534908
192	0x3d6ff085	0.058578987
193	0xbe04c942	-0.12967399
194	0x3cf7b191	0.030236037
195	0x3de612d9	0.11234064
196	0x3ce5eba1	0.028066458
197	0xbe2d1ca3	-0.16905455
198	0xbdaba0bd	-0.08380268
199	0xbe48768c	-0.19576472
200	0xbe15cce2	-0.14628938
201	0xbdc7075f	-0.09718203
202	0xbe1fde3f	-0.15612124
203	0xbdbb0d34	-0.09133378
204	0xbda5bd0a	-0.08092697
205	0xbca481e5	-0.02008147
206	0xbe67c825	-0.22634943
207	0xbd8aa303	-0.06769373
208	0x3c64da86	0.013968116
209	0xbd4df005	-0.05027773
210	0xbe071d68	-0.13194811
211	0xbcf0eefa	-0.029410828
212	0xbd1046cb	-0.035223763
213	0xbdc0f279	-0.09421248
214	0x3dfbc733	0.122938536
215	0x3da82a93	0.082112454
216	0x3d44c55b	0.048039775
217	0xbc4f1344	-0.012638871
218	0xbe51980c	-0.20468158
219	0xbcdce1bd	-0.02696311
220	0x3d8fb2fc	0.070165604
221	0xbdfee55a	-0.12446089
222	0x3d1ba031	0.037994567
223	0xbd95b893	-0.07310595
224	0x3c6ccc35	0.014452984
225	0x3da78e8b	0.08181485
226	0x3dd05a98	0.101735294
227	0xbdad7cff	-0.08471107
228	0xbd5f667d	-0.0545411
229	0xbe00c024	-0.12573296
230	0xbd25209f	-0.040314313
231	0xbd5b7b52	-0.053584404
232	0xbc96015c	-0.018311195
233	0xbde628fe	-0.112382874
234	0xbdfc2d3d	-0.12313316
235	0xbddfc30b	-0.10925873
236	0x3ca1c2d6	0.019746225
237	0x3de9294a	0.113848284
238	0x3d81e3cb	0.06342276
239	0xbdb5bd05	-0.08873943
240	0xbd5359ff	-0.0515995
241	0xbd7bcbde	-0.06147372
242	0xbe3869d9	-0.18009128
243	0xbe32340a	-0.17402664
244	0xbd5923b3	-0.05301256
245	0x3dde547b	0.10855957
246	0x3d3ca164	0.04605235
247	0xbd97dbe2	-0.07414986
248	0x3db7fbfe	0.089836106
249	0x3e12a003	0.14318852
250	0x3e11f1cd	0.14252396
251	0xbde610ee	-0.11233698
252	0xbd7b47c7	-0.06134775
253	0xbe2aa164	-0.16663128
254	0xbd068870	-0.03284496
255	0xbe0a015c	-0.13477081

network_body.linear_encoder.seq_layers.0.weight f4 [256, 35]
0	0x3e08b0b3	0.13348655
1	0xbcf50375	-0.029908875
2	0x3db4eb35	0.08833925
3	0xbe03e9b7	-0.12882124
4	0x3eb250e2	0.34827334
5	0xbd8f8929	-0.07008583
6	0x3d36cbe3	0.044628035
7	0x3e14666f	0.144922
8	0xbdd6b187	-0.104830794
9	0x3cae8f22	0.021308485
10	0xbe466a58	-0.19376504
11	0xbef10bc3	-0.47079286
12	0x3da03337	0.078222685
13	0xbe27e58b	-0.16396157
14	0xbe2bcd4b	-0.16777532
15	0xbe87b63d	-0.26506224
16	0x3cd1c0b8	0.02560459
17	0xbbd8d054	-0.0066166315
18	0xbd58b057	-0.052902546
19	0x3dadfce5	0.084955014
20	0x3cc5ecf3	0.024160838
21	0xbdf9e8a1	-0.122025736
22	0x3de2e7b7	0.11079352
23	0x3e3ab9e5	0.18234976
24	0x3d82f1bd	0.06393764
25	0x3eb71717	0.35759804
26	0xbe7f5139	-0.24933328
27	0xbee3dbce	-0.44503635
28	0x3e0757dd	0.13217111
29	0x3d91dae6	0.0712183
30	0xbdaa09f8	-0.08302683
31	0x3e352732	0.17690733
32	0x3ec94973	0.3931385
33	0x3f5acc24	0.85467744
34	0xbea81d2b	-0.32834753
35	0xbcb08a19	-0.021550225
36	0xbb7e19df	-0.0038772745
37	0x3c301baf	0.010748788
38	0xbe9d3fbf	-0.30712697
39	0xbdcc708a	-0.099824026
40	0x3e348dbf	0.17632197
41	0x3ec73c87	0.38913366
42	0xbd382bb4	-0.044963554
43	0x3d992145	0.07477049
44	0x3d100844	0.035164133
45	0x3e18f905	0.14938743
46	0x3ed10794	0.40826094
47	0x3d491860	0.04909551
48	0xbded2610	-0.115795255
49	0x3e871c78	0.26388907
50	0x3dbec535	0.09314958
51	0xbde6bc41	-0.11266375
52	0x3e423a26	0.18967494
53	0x3dbe7cf7	0.09301179
54	0x3dc0d674	0.09415904
55	0xbe65fbdc	-0.22459358
56	0xbe351e85	-0.17687424
57	0xbddaf6dc	-0.10691616
58	0xbd4fea5a	-0.050760604
59	0xbdacb758	-0.084334075
60	0xbe4baaaa	-0.19889322
61	0x3cfe6952	0.03105608
62	0xbbb2eeb0	-0.0054605827
63	0xbe028df2	-0.1274946
64	0xbda657cc	-0.08122215
65	0x3d592254	0.053011253
66	0xbc49df8f	-0.012321367
67	0x3df79fad	0.120910026
68	0xbdba83ed	-0.09107194
69	0x3de9f8ce	0.11424409
70	0x3df50f4c	0.11965808
71	0x3d877054	0.06613222
72	0x3e46a63c	0.19399351
73	0x3bb7e0cc	0.0056115147
74	0x3e0865ce	0.13320085
75	0x3e499978	0.1968745
76	0x3e7db1d8	0.24774873
77	0xbee09218	-0.4386146
78	0x3df65925	0.12028722
79	0x3d57dcd7	0.052700844
80	0x3ecc969f	0.39958665
81	0xbdd472a9	-0.10373432
82	0xbe9f682c	-0.31134164
83	0x3e432f0a	0.19060913
84	0x3d0deb0b	0.034647983
85	0x3e50dc4e	0.2039654
86	0xbd2f1a68	-0.042749792
87	0x3d58845b	0.0528606
88	0x3d6e85b3	0.058232974
89	0x3c30d0ca	0.010791967
90	0x3e6feabc	0.23429388
91	0x3eae2bd4	0.34017813
92	0x3e84ee3d	0.2596301
93	0xbe8cb61a	-0.27482682
94	0xbe14c3ac	-0.14527768
95	0x3dec568c	0.11539945
96	0x3eae071d	0.33989802
97	0x3d1bd41e	0.038044088
98	0xbeee21d7	-0.46510193
99	0xbe8c9cd2	-0.27463394
100	0x3db114cf	0.08646547
101	0xbe3c8759	-0.18411006
102	0xbd9a80f9	-0.07544131
103	0xbd51f885	-0.051262397
104	0x3e64a9eb	0.22330444
105	0x3e4e31cb	0.20136182
106	0x3e84ae76	0.25914353
107	0x3d11bcd9	0.03558049
108	0x3de604d2	0.11231388
109	0xbdcab891	-0.098984845
110	0x3e432648	0.19057572
111	0x3de2e118	0.110780895
112	0xbe0ec4bd	-0.13942237
113	0x3ebf3687	0.3734629
114	0xbe48434f	-0.19556926
115	0x3e681ed3	0.22668009
116	0xbe55713d	-0.20843978
117	0xbe0be48f	-0.13661407
118	0x3c96220c	0.018326782
119	0x3e9cf748	0.3065741
120	0xbe3015a4	-0.17195755
121	0xbc8658ea	-0.01639982
122	0x3d318c77	0.04334685
123	0xbddd17fb	-0.107955895
124	0x3e90f4bf	0.28311726
125	0xbe0a4a75	-0.13504966
126	0xbe411c24	-0.18858391
127	0xbdb99075	-0.09060756
128	0xbdb4954a	-0.08817537
129	0xbd355a38	-0.044275492
130	0xbd4e1d1b	-0.050320726
131	0x3f04275e	0.5162257
132	0x3e40937d	0.18806262
133	0x3ddd4e6a	0.10805972
134	0xbc1f5e2c	-0.009727042
135	0xbe42c5c3	-0.19020753
136	0x3da00e28	0.078152
137	0xbd98b1e1	-0.07455803
138	0x3e6bce29	0.23027863
139	0x3eb2411a	0.34815294
140	0xbe2daa40	-0.16959476
141	0x3df90d65	0.12160758
142	0x3d2d7262	0.042345412
143	0x3e60e41f	0.21962021
144	0x3c409896	0.011755129
145	0x3db41124	0.08792332
146	0xbe08bbcf	-0.13352893
147	0xbe995acb	-0.29952082
148	0x3ecab333	0.39589843
149	0xbde9a11f	-0.114076845
150	0x3e561187	0.20905124
151	0x3e0fe2e2	0.14051393
152	0xbe05cc34	-0.13066179
153	0x3d1f847a	0.0389447
154	0xbc42d5a5	-0.011891757
155	0xbe33b701	-0.17550279
156	0x3db63a04	0.08897784
157	0x3e1daa95	0.15397103
158	0x3e2f2a55	0.17105992
159	0x3ea85463	0.32876882
160	0x3e2c4fa7	0.1682726
161	0x3df1c1a6	0.11804514
162	0x3e948758	0.2900951
163	0xbe74fe1b	-0.23925059
164	0x3c2a9710	0.010411993
165	0x3ccb4257	0.024811907
166	0x3ef0f67e	0.4706306
167	0xbef1d02b	-0.47229132
168	0xbdaa542a	-0.08316834
169	0x3e316d04	0.17326742
170	0x3e206f47	0.15667449
171	0x3e4d4ac8	0.20048058
172	0x3dfab559	0.122416206
173	0x3db9835d	0.09058259
174	0xbd32490c	-0.043526694
175	0xbdd91e52	-0.10601486
176	0x3e40cb50	0.18827558
177	0x3e1558c8	0.14584649
178	0xbe28fe1e	-0.16503188
179	0x3d21c572	0.03949494
180	0x3d8a0816	0.067398235
181	0x3e2df720	0.16988802
182	0x3d991746	0.07475142
183	0x3cfa38a7	0.030544592
184	0xbd86dad7	-0.06584709
185	0x3dcd279c	0.100173205
186	0xbe156cf4	-0.14592344
187	0xbe2ba83e	-0.16763398
188	0xbeca30bf	-0.39490315
189	0xbe439253	-0.19098787
190	0xbe066775	-0.13125403
191	0xbe4590e3	-0.19293551
192	0xbdd6f7d9	-0.10496492
193	0xbd997966	-0.07493858
194	0xbd9b6f63	-0.07589605
195	0x3e05db1d	0.13071866
196	0xbe81f1d8	-0.25379825
197	0x3d035a78	0.0320687
198	0xbe0a807c	-0.13525575
199	0xbc2a4667	-0.010392762
200	0x3e5ee243	0.21766
201	0x3e7be53a	0.24599162
202	0x3cb99c3c	0.022657506
203	0xbdca58f1	-0.098802455
204	0x3dff3087	0.12460428
205	0x3e26fdbb	0.16307728
206	0xbdfc4bb5	-0.123191275
207	0x3f0c35f0	0.547698
208	0x3f00561a	0.5013138
209	0xbea60c8b	-0.32431445
210	0x3e974fa0	0.29552937
211	0x3e3cf916	0.18454394
212	0x3d6ec823	0.058296334
213	0x3ea7c78b	0.32769427
214	0x3d803ca2	0.06261565
215	0xbe005c4e	-0.12535211
216	0xbc63cabf	-0.013903319
217	0xbdfe42eb	-0.12415107
218	0xbe7351a8	-0.23761618
219	0xbdf2a7f3	-0.1184844
220	0xbd43070e	-0.04761415
221	0x3d9f09ce	0.07765542
222	0xbd826c09	-0.06368262
223	0xbdeda793	-0.11604228
224	0x3e90b1a2	0.28260523
225	0x3e83f949	0.25776127
226	0x3d927b31	0.07152403
227	0x3e5bd126	0.21466503
228	0xbe82b766	-0.25530547
229	0x3dd38133	0.10327377
230	0x3e27bdf1	0.1638105
231	0x3d45ad46	0.04826095
232	0x3eb8a807	0.36065695
233	0xbe4d8651	-0.20070769
234	0xbe91aebf	-0.28453633
235	0xbca59f5a	-0.020217586
236	0x3e6c7b64	0.23093945
237	0xbefd6fce	-0.49499363
238	0x3ecdc922	0.40192515
239	0x3e282ff1	0.16424538
240	0xbe2fbabe	-0.1716108
241	0x3de18f0f	0.110136144
242	0x3e86f92e	0.26361984
243	0x3d323a18	0.043512434
244	0x3e6e8e2e	0.23296425
245	0xbdc5a8e1	-0.09651352
246	0x3e4388a4	0.19095093
247	0xbe04f9fb	-0.12985985
248	0xbeb8f0a7	-0.36121103
249	0xbc97ecdd	-0.018545562
250	0xbe0f09aa	-0.1396853
251	0x3e6e47d2	0.23269585
252	0x3e9ce3b2	0.30642468
253	0xbccfa6f6	-0.025348168
254	0xbd7e6446	-0.062107347
255	0xbc47ca8d	-0.012194288

network_body.linear_encoder.seq_layers.2.bias f4 [256]
0	0xbe1f4397	-0.15553127
1	0xbe3eb102	-0.1862221
2	0xbd42615f	-0.04745614
3	0xbddcc7ca	-0.10780294
4	0xbe0df381	-0.1386242
5	0xbe110757	-0.14162956
6	0xbe19b54f	-0.1501057
7	0xbd0ed9d1	-0.034875695
8	0xbe196c5d	-0.14982744
9	0xbdc7959f	-0.09745335
10	0x3bf9c715	0.0076226094
11	0xbe2b88ab	-0.16751353
12	0xbe2fb10e	-0.17157385
13	0xbe61519b	-0.22003786
14	0xbd00191b	-0.031273942
15	0xbe2c5adf	-0.1683154
16	0xbe9055ce	-0.28190464
17	0xbe4cad22	-0.1998792
18	0xbe351a61	-0.17685844
19	0x3c94ceb1	0.018164964
20	0xbd1f4233	-0.038881492
21	0xbe51a825	-0.20474298
22	0xbe5fde8d	-0.2186224
23	0xbd05ce5c	-0.032667503
24	0xbe1f5920	-0.15561342
25	0xbdf51e23	-0.11968639
26	0xbddd848c	-0.10816297
27	0xbe5fac9f	-0.21843193
28	0xbe4efd70	-0.20213866
29	0xbdeb2772	-0.11482133
30	0xbe381281	-0.17975809
31	0xbe451985	-0.19248016
32	0xbe3ed345	-0.1863528
33	0xbd11da41	-0.035608534
34	0xbd252f8c	-0.040328547
35	0xbe3179ba	-0.17331591
36	0xbdea99f0	-0.114551425
37	0xbdb610b9	-0.08889908
38	0xbd86ab5d	-0.06575654
39	0xbde9cac6	-0.11415629
40	0xbe6adec4	-0.22936541
41	0xbe1c67d8	-0.15273988
42	0xbd03992a	-0.03212849
43	0xbdce94f3	-0.100870036
44	0xbd30c227	-0.043153908
45	0xbdc36e5e	-0.09542535
46	0x3bbd92e6	0.005785334
47	0xbe5c6d30	-0.21526027
48	0xbe3a5d1f	-0.18199585
49	0xbc11d493	-0.008900779
50	0xbd5fd6d3	-0.05464823
51	0xbe3a0a31	-0.1816795
52	0x3c8749cd	0.016514683
53	0xbcc2575a	-0.023723293
54	0xbe35694d	-0.1771595
55	0xbe2037e1	-0.15646316
56	0x3cdf612b	0.027268013
57	0xbde2e3d7	-0.11078613
58	0xbe59ef03	-0.21282582
59	0xbe18b1e6	-0.14911613
60	0xbd528e77	-0.051405396
61	0xbd888e29	-0.0666774
62	0xbe30f31a	-0.17280236
63	0xbdb47143	-0.088106655
64	0xbbc8aa48	-0.0061238147
65	0xbe632419	-0.22181739
66	0xbd69205e	-0.056915633
67	0xbd89f52a	-0.067362145
68	0xbe11b629	-0.14229645
69	0xbe299445	-0.16560467
70	0xbe1efdf8	-0.15526569
71	0xbe31be22	-0.17357686
72	0xbdd52958	-0.10408276
73	0xbe5492c6	-0.20759115
74	0xbe4ecb79	-0.20194806
75	0xbe079da9	-0.13243736
76	0xbe22d061	-0.15899803
77	0xbcd9b85d	-0.02657717
78	0x3ddd22d1	0.10797656
79	0xbdec11e0	-0.11526847
80	0xbdec59dd	-0.115405776
81	0xbdb1a3a9	-0.08673794
82	0xbdeb4219	-0.114872165
83	0xbe5f6d2f	-0.21818994
84	0xbdc67a2a	-0.0969127
85	0xbe147bb0	-0.14500308
86	0x3b3957f5	0.0028281186
87	0xbe065e50	-0.13121915
88	0xbd0b0953	-0.03394444
89	0xbe2b404f	-0.1672375
90	0xbe40e165	-0.18835981
91	0xbda42144	-0.080141574
92	0xbd865b90	-0.06560433
93	0xbe524834	-0.20535356
94	0xbd07a619	-0.033117387
95	0xbe4337ac	-0.19064206
96	0xbd16c250	-0.036806405
97	0xbcfd6e1a	-0.03093629
98	0xbe4990f8	-0.19684207
99	0xbdff2cc7	-0.124597125
100	0xbe71b3b8	-0.23603714
101	0xbe282c73	-0.16423206
102	0xbe3749c7	-0.17899238
103	0xbe53d53b	-0.2068681
104	0x3c5bc4b7	0.0134136
105	0x3d4f4414	0.050602034
106	0xbe244fed	-0.16046114
107	0xbe3acfd8	-0.18243349
108	0xbddb2f6f	-0.107024066
109	0xbe35b883	-0.17746167
110	0xbe69928b	-0.22809808
111	0xbd19c97f	-0.037545677
112	0xbe225de2	-0.15856126
113	0x3d0758bf	0.03304362
114	0xbd2e711b	-0.042588335
115	0xbe364db8	-0.17803085
116	0xbe20de6d	-0.15709849
117	0xbdb22ea8	-0.08700305
118	0xbe248654	-0.16066867
119	0x3c0555d3	0.008138138
120	0xbd26d8c9	-0.040734086
121	0xbe38a1e8	-0.18030512
122	0xbca677bb	-0.020320764
123	0xbe5b4083	-0.21411328
124	0xbb802ec0	-0.003911823
125	0xbc324069	-0.010879614
126	0xbe182983	-0.14859585
127	0xbe655313	-0.22394972
128	0xbd05ef6a	-0.032699026
129	0xbe3895ad	-0.18025847
130	0x3d8773ef	0.066139095
131	0xbe3020ca	-0.17200008
132	0xbe306195	-0.17224725
133	0xbe17808a	-0.14795128
134	0xbe17ef05	-0.14837272
135	0xbda44a26	-0.08021955
136	0xbe167885	-0.14694412
137	0x3daab9a5	0.0833619
138	0xbdf89255	-0.121372856
139	0xbe13c0b1	-0.14428975
140	0xbe6ea4d5	-0.23305066
141	0xbe4d0779	-0.20022382
142	0xbe301b14	-0.1719783
143	0xbe1ed48e	-0.1551077
144	0xbdc4e4db	-0.09613963
145	0xbca0c315	-0.019624272
146	0xbde75186	-0.11294846
147	0xbe17499c	-0.14774173
148	0xbe5c2603	-0.21498875
149	0xbd193212	-0.037401266
150	0xbe16fe92	-0.14745548
151	0xbe442f08	-0.19158566
152	0xbe1892f3	-0.14899807
153	0xbe13dd12	-0.144398
154	0xbdf3deb7	-0.11907714
155	0xbcea0597	-0.028567119
156	0xbe2c7dd6	-0.16844878
157	0xbca9762c	-0.020686232
158	0xbe444caa	-0.1916987
159	0xbe062343	-0.13099389
160	0xbdef931a	-0.11697979
161	0xbe588609	-0.2114488
162	0xbd33792b	-0.043816727
163	0xbad98f0e	-0.001659842
164	0xbe238574	-0.15968877
165	0xbe29454c	-0.16530341
166	0xbe005400	-0.12532043
167	0xbd809bc8	-0.06279713
168	0xbe65253e	-0.22377488
169	0xbd87c1d2	-0.06628765
170	0xbd7c2bed	-0.06156533
171	0xbe1a72de	-0.15082881
172	0xbddfe7bf	-0.10932874
173	0xbe31d497	-0.17366253
174	0xbe25b0b4	-0.16180688
175	0xbe42c784	-0.19021422
176	0xbbe96e78	-0.0071237646
177	0xbe13dbb5	-0.1443928
178	0xbd9ae0c4	-0.07562402
179	0xbd81a8db	-0.06331035
180	0xbd09f32f	-0.033679184
181	0xbcb9934f	-0.02265325
182	0xbddcce1c	-0.107815
183	0xbdecf960	-0.11571002
184	0xbe251c81	-0.16124155
185	0xbdf69955	-0.120409645
186	0xbd7259e7	-0.05916777
187	0xbd93317f	-0.07187175
188	0xbe40c170	-0.1882379
189	0xbe3f32df	-0.1867175
190	0xbdc0bc76	-0.09410946
191	0xbe4dc711	-0.20095469
192	0xbe272113	-0.1632121
193	0xbe0d7b4f	-0.1381657
194	0xbe0e07b9	-0.13870133
195	0xbdb80186	-0.089846656
196	0xbe03c741	-0.12868978
197	0xbd7ecccf	-0.06220704
198	0xbe232bb7	-0.15934645
199	0x3b84252d	0.004032752
200	0xbd350f6c	-0.04420416
201	0xbdde560f	-0.10856258
202	0xbe278b8f	-0.16361831
203	0xbd27e5ef	-0.040990766
204	0xbd7e8fa7	-0.062148716
205	0xbccbe4b7	-0.024889333
206	0xbe4cbd77	-0.1999415
207	0xbe3f3293	-0.18671636
208	0xbe346908	-0.17618191
209	0xbcd9d47e	-0.026590582
210	0xbe347415	-0.17622407
211	0xbe04d77b	-0.12972824
212	0xbe08f971	-0.13376404
213	0xbe0dfe61	-0.13866569
214	0xbd1b987f	-0.03798723
215	0xbdfbf82e	-0.12303196
216	0xbe3ef788	-0.18649113
217	0xbd0dbd9a	-0.034604646
218	0x3d4535ca	0.048147
219	0xbc9858d7	-0.01859705
220	0xbe1f768c	-0.15572566
221	0xbd00d964	-0.03145732
222	0xbe2f4a97	-0.17118298
223	0x3c8ff2f1	0.017571898
224	0xbdff4d79	-0.124659486
225	0xbd3d3bf4	-0.046199754
226	0xbe5b6297	-0.21424328
227	0xbd002b14	-0.031291083
228	0xbe3d4b96	-0.18485865
229	0xbc5e75d8	-0.013577901
230	0x3bc349b7	0.005959715
231	0xbdf49dba	-0.119441465
232	0xbde6878d	-0.11256323
233	0xbcc11abe	-0.023572322
234	0xbe0960d3	-0.13415842
235	0xbe0c02b5	-0.13672908
236	0xbe3f5f0b	-0.186886
237	0xbe3f8219	-0.18701972
238	0xbd01922b	-0.031633537
239	0xbda39238	-0.079868734
240	0xbe3f0960	-0.1865592
241	0xbd5b42c4	-0.05353047
242	0xbe05e8eb	-0.13077132
243	0xbe5652e9	-0.20930065
244	0xbe25c51d	-0.16188474
245	0x3a764637	0.0009394618
246	0xbd07d24c	-0.03315954
247	0xbe64f10c	-0.22357577
248	0xbe43118c	-0.19049662
249	0xbc3088ff	-0.01077485
250	0xbe4a38c6	-0.1974822
251	0xbe57beed	-0.21068926
252	0xbe3767d8	-0.17910707
253	0xbc247744	-0.010038201
254	0xbe344e28	-0.17607939
255	0xb9e79f24	-0.00044178322

network_body.linear_encoder.seq_layers.2.weight f4 [256, 256]
0	0xbe26a82b	-0.16275088
1	0xbd1c89a8	-0.038217217
2	0xbdd439a9	-0.1036256
3	0x3d57d29c	0.052691087
4	0xbe3393f5	-0.1753691
5	0xbe209029	-0.15679993
6	0xbddb5a50	-0.10710585
7	0xbcca67e0	-0.024707735
8	0x3cd7804a	0.02630629
9	0xbbe2e85f	-0.0069246734
10	0xbe056616	-0.13027224
11	0x3d62aad1	0.055338684
12	0xbd641d33	-0.05569191
13	0xbe14bcfa	-0.14525214
14	0x3cf17a32	0.029477213
15	0x3ddc2234	0.10748711
16	0x3cdae070	0.026718348
17	0xbea22a71	-0.31673005
18	0xbcba0b75	-0.022710541
19	0xbe76004c	-0.24023551
20	0xbdb74b8b	-0.089499556
21	0xbdf17f0a	-0.11791809
22	0x3dad7192	0.084689274
23	0x3d6deb14	0.058085516
24	0xbdcd4061	-0.10022045
25	0xbe2e7e99	-0.1704048
26	0xbe1b69fe	-0.15177152
27	0xbe1e58cf	-0.15463565
28	0x3d7266e3	0.05918015
29	0xbe009a5d	-0.12558885
30	0x3c73da21	0.014883549
31	0xbe36ef21	-0.17864658
32	0xbd9d42b8	-0.07678741
33	0x3d9a7d95	0.07543484
34	0x3df58f14	0.119901806
35	0xbe30fb3b	-0.17283337
36	0xbe58f201	-0.21186067
37	0xbd0b868b	-0.034063857
38	0xbe529234	-0.20563585
39	0xbd33d893	-0.043907713
40	0x3df50545	0.11963896
41	0x3d08d0e5	0.033402342
42	0xbe0d5556	-0.13802084
43	0xbd2229f5	-0.039590795
44	0xbe75aeaa	-0.2399241
45	0xbe45d2c4	-0.19318682
46	0xbcd8a539	-0.026445972
47	0xbcb34ae2	-0.021886293
48	0x3cbcd968	0.023052886
49	0xbc844d0d	-0.016150022
50	0xbe32ee5b	-0.17473738
51	0xbe31270c	-0.17300051
52	0xbd8facc4	-0.07015374
53	0xbdc20ae4	-0.094747335
54	0x3d84d1b8	0.06485313
55	0xbd8c4128	-0.06848365
56	0xbe3bb678	-0.18331325
57	0x3d8549eb	0.06508239
58	0xbd45bc14	-0.04827507
59	0xbd9b50bb	-0.075837575
60	0xbd84a577	-0.064768724
61	0xbe034629	-0.12819733
62	0xbd5ebd5b	-0.054379802
63	0xbd067b05	-0.032832164
64	0xbd914848	-0.07093865
65	0xbcc9fa19	-0.024655389
66	0x3d95182d	0.07280002
67	0x3c44131c	0.011967447
68	0x3d5423ef	0.05179208
69	0xbe438a25	-0.19095667
70	0x3d05a3a5	0.032626767
71	0x3d03480a	0.032051124
72	0xbd94e2e6	-0.0726984
73	0x3d7fc022	0.06243909
74	0xbc8536aa	-0.016261417
75	0xbda45d4e	-0.08025609
76	0x3d57386f	0.052544054
77	0x3c956579	0.018236862
78	0xbcf477fd	-0.029842371
79	0xbe4252f3	-0.18976955
80	0x3c9b7e0e	0.018981006
81	0xbe3551fb	-0.17707054
82	0xb9e0a4cb	-0.0004284739
83	0xbd3428f0	-0.043984354
84	0xbd7886f9	-0.060675595
85	0x3da81195	0.082064785
86	0x3c4ebf02	0.012618782
87	0x3d6515d6	0.055929027
88	0xbc2d7424	-0.010586772
89	0xbdb969a9	-0.09053356
90	0x3cde6a7e	0.027150389
91	0xbdf1e7c2	-0.118117824
92	0xbe3b17c6	-0.18270788
93	0xbe126007	-0.14294444
94	0x3da66373	0.08124437
95	0x3bd417e7	0.006472576
96	0xbe1c2223	-0.15247397
97	0x3dab8265	0.0837448
98	0xbde2c472	-0.11072625
99	0xbdbb4233	-0.09143486
100	0xbca099f3	-0.019604659
101	0x3cebb402	0.028772358
102	0xbce53a3d	-0.027981872
103	0xbd5b5203	-0.05354501
104	0xbd5d2c51	-0.05399734
105	0x3dfb9dfe	0.12285994
106	0x3d534f29	0.051589165
107	0xbd920193	-0.071292065
108	0xbc4a0b0c	-0.012331735
109	0xbe067910	-0.13132119
110	0x3aa567cb	0.0012619434
111	0xbc9aa332	-0.018876646
112	0xbe108698	-0.14113843
113	0x3d62c828	0.055366665
114	0xbe33a859	-0.17544688
115	0x3d862488	0.065499365
116	0xbd499990	-0.049218714
117	0xbda05823	-0.07829311
118	0xbdc0750a	-0.093973234
119	0x3bce07f9	0.0062875715
120	0xbdaca3c4	-0.08429673
121	0xbdd7d89b	-0.10539361
122	0x3dc8c555	0.09803263
123	0xbded636b	-0.11591228
124	0x3c131339	0.008976751
125	0xbe3171c8	-0.1732856
126	0x3cbd620b	0.02311804
127	0xbdcdf984	-0.10057357
128	0x3be39189	0.0069448394
129	0xbdd7f8c1	-0.10545493
130	0xbe410f3e	-0.1885347
131	0xbbbf0655	-0.0058296123
132	0x3c49a776	0.012307992
133	0xbe76b25e	-0.24091479
134	0x3d5780ab	0.05261294
135	0xbdde2965	-0.10847739
136	0xbcf796d7	-0.030223293
137	0x3d833c51	0.06407989
138	0xbd830c79	-0.06398863
139	0x3d3d2eb2	0.04618711
140	0xbe3bc5d5	-0.18337186
141	0xbe2b8b14	-0.16752273
142	0x3d989927	0.074510865
143	0xbd9f819d	-0.07788394
144	0xbd304752	-0.043036766
145	0xbe2e45c9	-0.17018808
146	0xbc4f1294	-0.012638707
147	0xbd363e7d	-0.044493187
148	0x3d2cb745	0.042166967
149	0xbea8a0a0	-0.32935047
150	0xbdef67b6	-0.11689703
151	0xbd27931a	-0.04091177
152	0xba27afaf	-0.00063967233
153	0xbd52b6ac	-0.05144374
154	0xbe04c77c	-0.12966722
155	0xbdd90a13	-0.10597625
156	0xbc38c580	-0.011277556
157	0x3d96d4a4	0.07364777
158	0xbe21673b	-0.15762036
159	0x3b889b77	0.0041689235
160	0x3c401c15	0.011725445
161	0xbe62a4f4	-0.22133237
162	0x3d0b1aad	0.033960987
163	0xbd442b60	-0.047892928
164	0xbb4e9c17	-0.0031526142
165	0xbc906666	-0.017626952
166	0x3c26d85a	0.010183418
167	0xbe7f889e	-0.24954459
168	0xbdfa4f4a	-0.122221544
169	0xbe42ce08	-0.19023907
170	0xbd3fb806	-0.046806358
171	0xbe761874	-0.24032766
172	0xbcd949ef	-0.026524512
173	0xbdbe31aa	-0.092868164
174	0xbc86d90a	-0.016460914
175	0xbe2ca6d1	-0.1686051
176	0xbc031af3	-0.008002031
177	0xbd2a5589	-0.04158548
178	0xbc8c8fbc	-0.017158382
179	0xbc2d1a67	-0.010565377
180	0x3df202e0	0.118169546
181	0xbe03c185	-0.1286679
182	0xbc2b65c4	-0.010461275
183	0x3ca8c07b	0.020599594
184	0xbd48ec3d	-0.04905342
185	0x3e0d17b9	0.1377858
186	0x3dde34a2	0.10849883
187	0xbe8afc6c	-0.27145708
188	0xbd936ea1	-0.07198835
189	0xbd219938	-0.03945276
190	0xbe35e6b8	-0.17763793
191	0xbd0e0f05	-0.034682292
192	0xbb5b466f	-0.003345873
193	0x3d1d5598	0.038411707
194	0xbe1b7c00	-0.15184021
195	0xbda6fecb	-0.08154067
196	0xbb5f00a2	-0.0034027477
197	0x3d8c099b	0.068377696
198	0xbe126cb0	-0.14299273
199	0xbe127ea3	-0.1430612
200	0x3d6f2067	0.05838051
201	0xbe719d23	-0.23595099
202	0xbe1873ac	-0.14887875
203	0xbdf5b120	-0.119966745
204	0xbd8a0d51	-0.06740821
205	0xbd1e5198	-0.038652033
206	0x3d8cc200	0.0687294
207	0xbe2183a7	-0.15772878
208	0x3d9e7bcb	0.077384554
209	0xbdc2f89b	-0.09520074
210	0xbc573619	-0.0131354565
211	0xbd545bd4	-0.051845387
212	0xbe912430	-0.2834792
213	0xbe522cb5	-0.20524867
214	0xbdfe35c2	-0.12412597
215	0xbe8094c0	-0.25113487
216	0xbcae8fa6	-0.021308731
217	0xbd9aad6e	-0.0755261
218	0xbb1d0a02	-0.0023962264
219	0x3d18acfe	0.037274353
220	0xbe41bad1	-0.18918921
221	0xbe0ed773	-0.13949375
222	0xbd6f1b50	-0.058375657
223	0x3d938a6b	0.072041355
224	0xbd3d16d5	-0.046164352
225	0xbe4e2750	-0.20132184
226	0xbe871c78	-0.26388907
227	0x3d90b206	0.07065205
228	0xbe390501	-0.18068315
229	0xbc17f332	-0.009274291
230	0xbd84976a	-0.064741924
231	0xbda26138	-0.07928699
232	0x3cd85414	0.02640728
233	0xbc95bace	-0.018277552
234	0x3dd66f96	0.10470502
235	0xbdd26201	-0.10272599
236	0x3d75a208	0.05996898
237	0xbe032994	-0.1280883
238	0x3d7b4825	0.0613481
239	0xbe600569	-0.21877064
240	0xbe94c290	-0.2905469
241	0x3c1a5b20	0.00942114
242	0xbe07b439	-0.13252343
243	0xbd19c7f0	-0.03754419
244	0x3db43a6d	0.08800206
245	0x3d388682	0.04505015
246	0x3d1e52b6	0.038653098
247	0xbd51fc99	-0.051266287
248	0x3ddfd6ae	0.10929619
249	0xbe4fddfc	-0.20299524
250	0xbd816699	-0.06318397
251	0xbd0fc7fd	-0.035102833
252	0xbe53295d	-0.20621248
253	0xbd44f25c	-0.048082694
254	0xbe12b3e1	-0.14326431
255	0x3e136980	0.14395714

network_body.vector_processors.0.normalizer.running_mean f4 [35]
0	0x3ec639a2	0.38715845
1	0x3f16fe76	0.58982027
2	0x3cbc968d	0.023021007
3	0x3e8045ad	0.25053158
4	0x3f3c093b	0.73451585
5	0x3e867927	0.26264307
6	0x3b3a7345	0.0028450054
7	0x3e404c86	0.18779191
8	0x3f3ab5b6	0.7293352
9	0x3e89b175	0.268932
10	0x3ae32d1b	0.0017332168
11	0x3e48a834	0.19595414
12	0x3f3d7975	0.74013454
13	0x3e849113	0.25891933
14	0x3a7837e7	0.00094687793
15	0x3e458a31	0.19290997
16	0x3f610ee7	0.87913364
17	0x3df04276	0.117314264
18	0x3b68d4fb	0.0035527337
19	0x3e48d49f	0.19612359
20	0x3ea66775	0.32500806
21	0x3f21d435	0.6321443
22	0x3d2f80fb	0.042847615
23	0x3e058437	0.13038717
24	0x3f0a5c62	0.54047215
25	0x3ee68805	0.4502565
26	0x3c17eea5	0.009273206
27	0x3e365b02	0.17808154
28	0x3ea2b464	0.31778252
29	0x3ef01a1d	0.46894923
30	0x3e5a629f	0.21326683
31	0x3e886678	0.26640677
32	0xba7fec71	-0.00097627105
33	0x3d005cbf	0.03133845
34	0x3d2868c5	0.04111554
