Assets/Testing/SkrozDesno.onnx (onnx, 304843 bytes, 9 tensors)

62 f4 [35]
0.4917507 0.48835173 0.12868164 0.19322017 0.49999574 0.49993744 0.1000462 0.17502569
0.3608819 0.3579184 0.055262286 0.12702256 0.4398658 0.43779126 0.061526645 0.1344816
0.42674696 0.42176202 0.08904728 0.15037565 0.47389984 0.4952258 0.4197795 0.4029456
0.47926393 0.49671155 0.27925414 0.2906222 0.47109506 0.4265952 0.49483874 0.47286543
0.41631737 0.0027243232 0.413833
00000000: bfc6 fb3e 3d09 fa3e 1fc5 033e 82db 453e
00000010: 71ff ff3e cdf7 ff3e 06e5 cc3d ef39 333e
00000020: 83c5 b83e 1541 b73e b55a 623d 3412 023e
00000030: 1736 e13e 2d26 e03e 5d03 7c3d 8bb5 093e
00000040: 947e da3e 31f1 d73e 6c5e b63d 13fc 193e
00000050: 00a3 f23e 3c8e fd3e 57ed d63e e34e ce3e
00000060: 1562 f53e fa50 fe3e 66fa 8e3e 6fcc 943e
00000070: 5f33 f13e b06a da3e 815b fd3e 6b1b f23e
00000080: 8d27 d53e 8f8a 323b ebe1 d33e

action_model._continuous_distribution.log_sigma f4 [1, 2]
-0.6469278 -0.87702733
00000000: 0f9d 25bf dd84 60bf

action_model._continuous_distribution.mu.bias f4 [2]
0.046049673 0.12972799
00000000: 959e 3c3d 6ad7 043e

action_model._continuous_distribution.mu.weight f4 [2, 256]
-0.01668529 0.016021457 0.0021857773 -0.0135724135 -0.043665666 -0.042447325 0.034857284 -0.023982994
-0.036045175 -0.07047685 0.0010336695 0.002822875 0.07062769 0.00065715105 0.12417135 -0.014310362
0.009384705 -0.033377383 0.012719678 -0.0028603328 0.069477186 -0.06149342 -0.08012519 0.05489069
-0.0866002 0.0051058135 -0.038642235 -0.02627589 -0.00097443035 0.01963895 0.0030252913 -0.048359115
0.03435135 -0.101704426 -0.111761354 -0.06078724 -0.010666689 -0.00083311787 0.0019351589 0.037279118
-0.08546538 0.022914851 -0.0019828596 -0.20143987 0.010167869 -0.04165237 -0.013895151 0.00031076907
-0.06984705 -0.020118328 0.0001137982 0.004439569 -0.10718165 -0.0009491886 -0.07625363 0.004593974
-7.3204346e-06 0.104307175 -0.016306533 0.06651935 -0.09523157 -0.000304321 -0.11075213 -0.031112857
0.08106107 -0.03509298 -0.023122152 -0.11540164 0.10910416 -0.0027182095 -0.025129048 -0.011254804
0.014760073 0.013987894 0.09749103 -0.006569768 -0.05344651 -0.04925086 -0.055385254 -0.13797231
-0.025980141 -0.1270244 -0.041659743 -0.06083691 -0.048223417 -0.00013975988 0.0006757381 -0.013463534
-0.015018807 -0.059004385 -0.08539671 -0.016110701 -0.023798669 -0.00043726776 -0.034254074 0.021254407
0.04815697 0.0025776534 -0.03285332 -0.019636285 0.0002535573 0.015455075 -0.040649936 -0.06079262
-0.0005490691 0.0056663603 -0.09101594 -0.00068685215 -0.0018392588 -0.040017564 -0.01666424 0.00021449245
-0.023857387 -0.0005419999 0.00047080047 0.0058227926 0.049037658 -0.010370888 0.014480856 0.016990492
0.0013071365 -0.04700433 0.013503717 -0.047804188 0.026363144 0.0556213 -0.072545856 -0.0017088696
-0.0147976205 -0.115979485 0.0001289122 -0.03912772 -0.00033614854 -0.0067650806 -0.043037333 0.00031374933
0.051850755 -0.046962697 -0.029678635 0.004392936 -0.029630251 -0.024091281 -0.048337523 -0.06574085
0.0126516735 -0.0015469803 -0.17330368 -0.070839636 -0.021973593 -0.016475555 0.052174613 -0.03046797
0.08314142 -0.0035071685 -0.035689853 0.00037987615 -0.027584005 -0.11564066 -0.107544154 -0.061961945
0.020885563 0.06709603 0.044035047 -0.0004398113 0.00010909795 -0.04810274 -0.052404825 -0.03207573
-0.006198812 0.002437368 0.00060851034 -0.019959264 0.00034547976 -0.09890624 -0.012984927 -0.07747995
-0.0004975388 0.04439126 -0.023424355 -0.07287706 -0.00082417973 0.015579341 -0.053875733 0.020279497
-0.00018892431 -0.028908763 -0.0018490952 -0.101545244 0.07196252 0.115330815 -0.01830657 -0.0056246393
0.00068857614 -0.0133106075 -0.084101714 0.030329818 -0.0012743026 -0.004327478 -0.03565393 -0.061067253
0.005857058 -0.003110059 0.0033166562 -0.030821204 -0.12772901 0.11847369 0.047419474 0.09053086
0.06217347 0.047465455 -0.020172372 -0.022364 -0.06091004 -0.034030717 -0.071584515 -0.053110655
-0.046588466 -0.00092413713 -0.056417316 -0.115431234 0.07090346 -0.09373163 -0.028120011 -0.09254132
-0.058917716 0.05617125 0.016288474 -0.0478188 -0.00049047667 -0.011153627 -0.023283007 -0.0013784012
-0.06273219 0.00072355976 0.0052620494 -0.007741208 -0.020828646 0.01920155 -0.008345288 0.07964361
-0.06978753 -0.061913174 0.0011898979 -0.15473749 -0.08933005 -0.0399541 -0.017145883 -0.0716063
0.00019076168 -0.0032097464 0.10023131 0.031091664 0.05684649 0.05504864 -0.046096813 -0.002255044
00000000: 97af 88bc 6e3f 833c 423f 0f3b d45e 5ebc
00000010: c5da 32bd 3fdd 2dbd 83c6 0e3d fc77 c4bc
00000020: 1ba4 13bd 2b56 90bd 317c 873a fcff 383b
00000030: 40a5 903d a944 2c3a 8c4d fe3d 0276 6abc
00000040: 4ec2 193c b9b6 08bd 3266 503c 6c74 3bbb
00000050: 0e4a 8e3d 86e0 7bbd ad18 a4bd 0fd5 603d
00000060: 725b b1bd ab4e a73b 5247 1ebd 8940 d7bc
00000070: ea70 7fba dde1 a03c f743 463b 3514 46bd
00000080: 00b4 0c3d 694a d0bd 23e3 e4bd 0afc 78bd
00000090: 56c3 2ebc 9865 5aba 28a5 fd3a fdb1 183d
000000a0: 7908 afbd edb7 bb3c ddf2 01bb 4146 4ebe
000000b0: 2297 263c ad9b 2abd 7da8 63bc b8ee a239
000000c0: f80b 8fbd 31cf a4bc f2a6 ee38 ce79 913b
000000d0: 0e82 dbbd f8d2 78ba dd2a 9cbd 0c89 963b
000000e0: 0ea2 f5b6 009f d53d 4795 85bc 4c3b 883d
000000f0: c508 c3bd 468d 9fb9 03d2 e2bd 64e0 febc
00000100: 5903 a63d a8bd 0fbd ab6a bdbc b257 ecbd
00000110: 0072 df3d fd23 32bb 6fdb cdbc 1266 38bc
00000120: 3cd4 713c 7b2d 653c 61a9 c73d 3547 d7bb
00000130: baea 5abd 45bb 49bd a6db 62bd 9d48 0dbe
00000140: 4ed4 d4bc af12 02be 68a3 2abd 2030 79bd
00000150: eb85 45bd 828c 12b9 0424 313a 2896 5cbc
00000160: 7111 76bc 95ae 71bd 78e4 aebd 97fa 83bc
00000170: 6df5 c2bc 1641 e5b9 004e 0cbd b91d ae3c
00000180: 3e40 453d d9ed 283b 3491 06bd 46dc a0bc
00000190: e2ef 8439 4837 7d3c 8c80 26bd af01 79bd
000001a0: 67ef 0fba e0ac b93b 9166 babd de0d 34ba
000001b0: 4913 f1ba 75e9 23bd 7283 88bc 61e9 6039
000001c0: 9170 c3bc ff14 0eba c5d5 f639 20cd be3b
000001d0: b6db 483d a8ea 29bc 1d41 6d3c a52f 8b3c
000001e0: 3954 ab3a 9d87 40bd b23e 5d3c 53ce 43bd
000001f0: 85f7 d73c 29d3 633d ec92 94bd 26fc dfba
00000200: b871 72bc a786 edbd 9b2c 0739 6344 20bd
00000210: 183d b0b9 9cad ddbb ea47 30bd b97e a439
00000220: 7561 543d f55b 40bd 9c20 f3bc 9ef2 8f3b
00000230: 24bb f2bc 145b c5bc 91fd 45bd 24a3 86bd
00000240: f748 4f3c 0cc4 caba 8576 31be 5f14 91bd
00000250: f701 b4bc bef7 86bc 0cb5 553d f797 f9bc
00000260: 0c46 aa3d 86d8 65bb 862f 12bd 1d2a c739
00000270: daf7 e1bc 03d5 ecbd 1c40 dcbd cfcb 7dbd
00000280: 3318 ab3c a569 893d 185e 343d 7996 e6b9
00000290: 84cb e438 6107 45bd 71a6 56bd d761 03bd
000002a0: 671f cbbb 40bc 1f3b 7084 1f3a 9c81 a3bc
000002b0: 8221 b539 5b8f cabd bbbe 54bc cfad 9ebd
000002c0: 436d 02ba 9cd3 353d 6fe4 bfbc 9140 95bd
000002d0: c40d 58ba 7e40 7f3c cdac 5cbd 3021 a63c
000002e0: fc19 46b9 12d2 ecbc 575d f2ba f4f6 cfbd
000002f0: 1661 933d 9032 ec3d a9f7 95bc e54e b8bb
00000300: 9081 343a bc14 5abc 853d acbd 3d76 f83c
00000310: 8006 a7ba 84cd 8dbb db09 12bd a821 7abd
00000320: 90ec bf3b 22d2 4bbb 425c 593b c07c fcbc
00000330: 65cb 02be 55a2 f23d ec3a 423d 3e68 b93d
00000340: 9ca9 7e3d 236b 423d 8840 a5bc b534 b7bc
00000350: ce7c 79bd cb63 0bbd e79a 92bd 8f8a 59bd
00000360: 8cd3 3ebd cb41 72ba d815 67bd 3667 ecbd
00000370: d535 913d 5ef6 bfbd f05b e6bc 4e86 bdbd
00000380: b453 71bd d313 663d 686f 853c a5dd 43bd
00000390: 5593 00ba b4bd 36bc 01bc bebc 78ab b4ba
000003a0: bc79 80bd 46ad 3d3a 456d ac3b f6a9 fdbb
000003b0: d6a0 aabc 924c 9d3c adba 08bc 301c a33d
000003c0: c4ec 8ebd ab98 7dbd 59f6 9b3a 8173 1ebe
000003d0: acf2 b6bd e9a6 23bd 8675 8cbc 53a6 92bd
000003e0: 3307 4839 9c5a 52bb 1346 cd3d f2b3 fe3c
000003f0: ddd7 683d af7a 613d 03d0 3cbd 5cc9 13bb

network_body.linear_encoder.seq_layers.0.bias f4 [256]
-0.10866924 0.010085327 0.008052432 0.0155531 -0.014240355 -0.07802582 -0.0047490844 -0.054362953
-0.014338976 -0.033881802 0.010532071 -0.01788741 0.08547933 0.044691198 0.0285236 -0.020704387
0.034361757 -0.021494742 -0.09657792 -0.056791075 -0.052699097 0.04097972 0.07215538 -0.056991484
0.002172741 0.038906522 0.07271152 0.08070688 0.0039284746 0.011321863 -0.0043344987 -0.13072848
-0.041612957 -0.10353646 0.09865448 0.011815793 -0.017992485 -0.069571 0.0016674963 -0.0968617
-0.08890467 -0.054224838 0.010623619 -0.026528586 -0.151402 -0.010070796 0.037947074 0.10678497
0.034680095 -0.049648557 0.060284466 -0.12666003 0.011222063 -0.0067367265 0.014459752 0.030610388
0.0046818275 0.034913365 -0.030834023 0.042126533 0.08275122 -0.06817487 -0.0003267935 -0.012567854
0.035576113 -0.03517539 0.02708235 -0.011569285 0.08437071 -0.006119398 0.077582575 0.075700685
-0.08972823 -0.0427735 -0.014796046 -0.050937757 -0.046367235 -0.003673512 -0.05374275 0.01609933
0.048224334 -0.05878629 0.10294659 -0.043034684 -0.1469895 -0.06251317 -0.026898894 -0.03284448
0.03637572 -0.052501157 -0.11449776 -0.079837866 -0.051550504 -0.0923336 -0.08403454 0.10906441
-0.009263042 -0.052276846 -0.0472655 -0.0065459604 -0.082496606 0.061687995 -0.036927145 -0.06223383
-0.04207426 0.023597157 -0.025701802 0.011990497 -0.055378094 0.0105407275 -0.13076736 -0.09101534
-0.06757824 0.032843824 0.059248745 -0.0883816 -0.0332779 -0.17641187 -0.09339129 0.07346567
0.03699765 -0.052239213 0.017075721 0.00069426233 -0.04210056 -0.07509696 -0.099701956 0.07789087
-0.076976515 -0.058016513 -0.06523535 -0.09023256 -0.031387985 0.05139624 -0.12922394 0.08393428
0.08885934 -0.02074483 -0.08274257 0.0038714374 -0.110990964 0.15773357 0.06565043 -0.1137303
-0.050998148 -0.02667034 -0.04721261 0.00062101416 0.05095822 -0.045678988 -0.018924873 0.019636557
-0.21387054 -0.0982471 -0.004500023 -0.08616273 -0.020307377 -0.0119851725 -0.11854614 -0.076320395
0.063221954 0.06808485 -0.0003393329 0.055495184 -0.19753434 -0.028407313 0.08189115 -0.06775282
-0.05165017 -0.037645835 -0.08434496 0.07600054 -0.025902094 -0.004648163 -0.064405724 0.006676327
0.023765948 -0.07103123 -0.049866725 -0.012697086 0.070012845 -0.037888993 -0.06524233 0.048671097
-0.07121876 0.110530436 0.0049928296 -0.048194278 -0.03095596 -0.06694211 -0.054989863 -0.048159625
0.007125574 0.033117123 -0.10811131 0.023640439 0.036802575 -0.05178688 -0.000898229 -0.025625695
-0.1467177 -0.04309908 0.09427304 -0.08230386 -0.076347835 -0.019144231 -0.00031011607 -0.124532335
-0.11147101 -0.0073773526 -0.038501244 0.034910843 -0.014793815 -0.15937102 -0.02541786 -0.044401165
0.009195502 0.0124728335 0.010716945 -0.06945772 -0.04897002 -0.04796164 -0.12011258 0.026345307
-0.04455287 -0.1056788 -0.03400617 0.07270808 0.092907295 0.066790275 -0.02549815 -0.06281046
-0.007423691 -0.021183824 0.09456194 -0.12745637 -0.024595093 0.028844384 0.037828617 0.012049363
0.020504534 -0.10315584 -0.049871292 0.034126647 0.02888084 -0.021301603 -0.099194646 0.044688355
-0.042368416 -0.033481568 -0.10489785 -0.040071297 0.10041953 -0.049665153 -0.0066660047 -0.11378231
00000000: fa8d debd ed3c 253c 59ee 033c 6ed2 7e3c
00000010: 6150 69bc 00cc 9fbd 359e 9bbb b0ab 5ebd
00000020: 06ee 6abc a5c7 0abd b58e 2c3c 9e88 92bc
00000030: c90f af3d 1e0e 373d 53aa e93c 3f9c a9bc
00000040: eabe 0c3d be15 b0bc a5ca c5bd c29d 68bd
00000050: 02db 57bd 5ada 273d 33c6 933d e76f 69bd
00000060: 8c64 0e3b 725c 1f3d c7e9 943d a649 a53d
00000070: 6fba 803b 567f 393c 6908 8ebb b0dd 05be
00000080: 5972 2abd ec0a d4bd 5c0b ca3d 0797 413c
00000090: fa64 93bc 3e7b 8ebd e48f da3a 6d5f c6bd
000000a0: a713 b6bd dd1a 5ebd b00e 2e3c 7a52 d9bc
000000b0: 2009 1bbe fbff 24bc 646e 1b3d 14b2 da3d
000000c0: b70c 0e3d 495c 4bbd d8ec 763d 2bb3 01be
000000d0: bedc 373c c2bf dcbb 98e8 6c3c a3c2 fa3c
000000e0: 046a 993b 5101 0f3d a297 fcbc df8c 2c3d
000000f0: 7979 a93d 449f 8bbd 7b55 abb9 66e9 4dbc
00000100: 42b8 113d 1214 10bd cedb dd3c 198d 3dbc
00000110: 8dca ac3d 3b85 c8bb 9de3 9e3d f608 9b3d
00000120: 6fc3 b7bd 4433 2fbd 1d6b 72bc 1ca4 50bd
00000130: 92eb 3dbd 4ebf 70bb 5c21 5cbd bee2 833c
00000140: e186 453d e5c9 70bd a9d5 d23d 2345 30bd
00000150: 6a84 16be e806 80bd 125b dcbc ef87 06bd
00000160: b5fe 143d 740b 57bd cd7d eabd 0982 a3bd
00000170: 9f26 53bd 6619 bdbd 4d1a acbd 295d df3d
00000180: 04c4 17bc 3f20 56bd 7899 41bd 7f7f d6bb
00000190: fbf3 a8bd 8dac 7c3d eb40 17bd e7e8 7ebd
000001a0: 0f56 2cbd d34e c13c 968c d2bc ca73 443c
000001b0: 24d4 62bd 04b3 2c3c e1e7 05be 4066 babd
000001c0: 7666 8abd 3f87 063d d0ae 723d 6a01 b5bd
000001d0: 684e 08bd 50a5 34be ef43 bfbd 2b75 963d
000001e0: d98a 173d c9f8 55bd 62e2 8b3c 28ff 353a
000001f0: a371 2cbd 6fcc 99bd 8a30 ccbd 4085 9f3d
00000200: dda5 9dbd b9a2 6dbd 1c9a 85bd d9cb b8bd
00000210: b090 00bd dd84 523d 4853 04be bce5 ab3d
00000220: e3fb b53d 10f1 a9bc f074 a9bd f1b7 7d3b
00000230: 3b4f e3bd e984 213e bc73 863d 6eeb e8bd
00000240: 6fe3 50bd c27b dabc 0262 41bd 8ecb 223a
00000250: 91b9 503d e419 3bbd 5608 9bbc d8dc a03c
00000260: e100 5bbe c735 c9bd ee74 93bb 1676 b0bd
00000270: a85b a6bc 755d 44bc 52c8 f2bd de4d 9cbd
00000280: 837a 813d 1270 8b3d 7ee8 b1b9 eb4e 633d
00000290: 7146 4abe 74b6 e8bc 8cb6 a73d fec1 8abd
000002a0: 218f 53bd 8532 1abd 0dbd acbd 2ca6 9b3d
000002b0: a130 d4bc 9e4f 98bb 26e7 83bd 17c5 da3b
000002c0: ceb0 c23c d278 91bd 0d41 4cbd 7007 50bc
000002d0: e562 8f3d 7d31 1bbd c59d 85bd 585b 473d
000002e0: 24db 91bd c85d e23d e49a a33b 5d67 45bd
000002f0: 5a97 fdbc f218 89bd 0d3d 61bd 0743 45bd
00000300: a67d e93b d2a5 073d 7669 ddbd 98a9 c13c
00000310: 4cbe 163d 7b1e 54bd 2177 6bba faec d1bc
00000320: 2a3d 16be a988 30bd 3912 c13d ed8e a8bd
00000330: 415c 9cbd 5dd4 9cbc 1397 a2b9 cf0a ffbd
00000340: ea4a e4bd b8bd f1bb 7bb3 1dbd acfe 0e3d
00000350: c261 72bc 2832 23be 1e39 d0bc ffdd 35bd
00000360: bba8 163c db5a 4c3c 2096 2f3c d93f 8ebd
00000370: ca94 48bd 6d73 44bd 96fd f5bd 1dd2 d73c
00000380: 127d 36bd 206e d8bd 0e4a 0bbd f9e7 943d
00000390: 2e46 be3d 57c9 883d 7fe1 d0bc c5a2 80bd
000003a0: 6f42 f3bb b389 adbc b1a9 c13d ec83 02be
000003b0: a67b c9bc 0f4b ec3c 2ef2 1a3d b16a 453c
000003c0: 20f9 a73c 5e43 d3bd d745 4cbd 62c8 0b3d
000003d0: 8397 ec3c b380 aebc 9026 cbbd 230b 373d
000003e0: 818a 2dbd f823 09bd afd4 d6bd cd21 24bd
000003f0: c1a8 cd3d b06d 4bbd 806e dabb b306 e9bd

network_body.linear_encoder.seq_layers.0.weight f4 [256, 35]
-0.03131624 -0.040701363 0.32151288 0.21412128 0.030988371 0.14515603 -0.039683852 0.06184115
-0.10471439 0.3027443 -0.16483697 -0.119126245 0.0694412 -0.09309964 0.15942356 0.33152407
-0.0469387 -0.24265212 0.22958529 -0.22841592 -0.31671578 -0.17460817 0.19852535 -0.021564214
0.16042918 0.46937808 -0.0948576 -0.03200251 0.12961318 -0.18773867 -0.32181835 -0.14444697
0.11543098 -0.02040955 0.06067762 0.004132109 -0.046454567 0.26902434 0.060406353 -0.14451888
-0.08773396 0.24171303 -0.07938746 -0.1337882 0.03961319 -0.21808843 0.19368167 -0.100445494
0.14170995 -0.060562465 0.2253804 0.039251324 -0.14849964 0.23674643 0.17353489 0.028616015
0.16354625 -0.3041857 -0.038124114 0.02411223 0.11105086 -0.16257738 0.3600728 -0.026719151
-0.09845394 0.03847471 0.010059671 -0.31701496 -0.068823375 0.19377548 -0.17965767 0.19352148
-0.04304671 0.12150463 0.11428847 0.17636463 -0.011742553 0.06926764 0.004251321 0.16450769
-0.20126648 0.19141571 -0.09810584 0.07255547 0.008676807 0.11550452 0.06916868 -0.049781866
0.040632505 0.4957375 0.10958501 0.13513626 0.08559239 -0.116491586 0.04109639 0.04002135
0.20404264 -0.23733869 0.051742 -0.028693056 0.042876855 0.10829308 -0.055860996 0.008187641
-0.2700296 0.2491796 -0.1627195 -0.18423861 0.38078633 0.18624207 -0.0076449597 0.051381428
-0.13257085 0.02881583 0.11566361 0.1259344 -0.08245693 -0.004973988 0.077915736 0.023787197
-0.042981055 0.138043 0.23583314 0.13617861 -0.060635492 -0.16212252 0.08776234 0.21914501
0.027524581 0.028540086 0.009872561 -0.095636755 0.06629395 -0.19162928 0.031777103 -0.19969305
-0.23152587 0.15105821 0.025502317 0.090076655 0.21301614 -0.0031737809 0.41374722 0.10569388
0.1924834 -0.17284632 0.068295866 0.15723327 -0.27941212 0.11845095 -0.012198631 0.03894634
-0.14218046 -0.12798415 0.052964605 -0.08024609 0.6072805 0.047626134 -0.0035122496 -0.663872
-0.30906874 0.16422264 -0.21556748 0.11074099 0.18707427 -0.13622937 -0.20150056 0.3329829
0.030167129 0.03448561 -0.40411362 -0.017644042 -0.0152623905 -0.14141989 -0.08458492 -0.14125837
-0.110854186 -0.1147189 -0.0614228 0.19505003 -0.14953077 -0.10319436 -0.38350344 -0.13309397
0.23118137 -0.20202275 0.12133153 -0.04936517 0.26787785 0.03678363 -0.018874764 -0.19779508
-0.0393869 0.14254154 0.03922868 -0.004867645 0.37022102 -0.12775838 0.084319666 -0.085310854
-0.10112597 -0.03472893 -0.017544556 0.034185845 -0.010588985 -0.0949158 -0.15887189 -0.49109733
0.22397555 0.4407255 -0.2962945 0.32424912 0.10092729 -0.04779171 -0.026249243 -0.32410944
0.21489345 0.29185107 -0.4635611 -0.17786062 0.003330658 -0.05884055 -0.26117173 0.010496702
0.22545092 -0.17904478 -0.007676411 0.14091626 0.22246136 -0.04015619 -0.15496717 0.07915072
-0.23173232 -0.008382215 0.18621923 -0.12168859 -0.25845417 0.24186195 0.082432024 0.23223782
-0.10451746 0.13297482 -0.21045344 -0.39973357 -0.31189138 -0.06767003 0.1672561 -0.0343899
-0.33872372 -0.029727763 -0.09807602 -0.2349687 0.09757039 0.005123276 -0.13339002 -0.07939546
00000000: 7545 00bd 79b6 26bd 569d a43e 9c42 5b3e
00000010: 53db fd3c c8a3 143e 898b 22bd 254d 7d3d
00000020: 8074 d6bd 4d01 9b3e 06cb 28be 76f8 f3bd
00000030: 3037 8e3d 06ab bebd ee3f 233e 86bd a93e
00000040: cb42 40bd cc79 78be 6818 6b3e dde5 69be
00000050: 9228 a2be 7ccc 32be 3b4a 4b3e 6fa7 b0bc
00000060: 8c47 243e 5352 f03e b444 c2bd 1015 03bd
00000070: 51b9 043e 913e 40be 60c5 a4be e8e9 13be
00000080: 1467 ec3d ee31 a7bc 1989 783d a566 873b
00000090: 2547 3ebd 8fbd 893e a76c 773d c2fc 13be
000000a0: ddad b3bd 9f83 773e e595 a2bd c6ff 08be
000000b0: 7141 223d 9352 5fbe 7d54 463e 5eb6 cdbd
000000c0: 6a1c 113e 5910 78bd 1fca 663e ffc5 203d
000000d0: 4a10 18be a86d 723e 21b3 313e 226c ea3c
000000e0: ab78 273e 3abe 9bbe 0828 1cbd 0387 c53c
000000f0: a26e e33d af7a 26be 765b b83e 1fe2 dabc
00000100: 38a2 c9bd a897 1d3d 51d1 243c c94f a2be
00000110: 45f3 8cbd 146d 463e 2ef8 37be 7f2a 463e
00000120: bf51 30bd 6bd7 f83d 1310 ea3d ee98 343e
00000130: d663 40bc 31dc 8d3d aa4e 8b3b b474 283e
00000140: cd18 4ebe 7b02 443e b7eb c8bd f697 943d
00000150: 2b29 0e3c a28d ec3d 4fa8 8d3d 12e8 4bbd
00000160: 456e 263d 4ed1 fd3e 1b6e e03d 2961 0a3e
00000170: 104b af3d 2493 eebd b054 283d 6ded 233d
00000180: 8ef0 503e ea08 73be 6bef 533d b30d ebbc
00000190: a49f 2f3d c3c8 dd3d 80ce 64bd 7525 063c
000001a0: 5241 8abe f028 7f3e f19f 26be 0ca9 3cbe
000001b0: 6df6 c23e 3eb6 3e3e 9282 fabb 5575 523d
000001c0: a7c0 07be 2d0f ec3c 0be1 ec3d f3f4 003e
000001d0: 2edf a8bd d6fc a2bb 4992 9f3d 5edd c23c
000001e0: e70c 30bd 255b 0d3e 3e7e 713e 6872 0b3e
000001f0: ec5c 78bd 7203 26be bebc b33d 8d67 603e
00000200: 3b7b e13c e6cc e93c 86c0 213c 34dd c3bd
00000210: 1fc5 873d 773a 44be b528 023d 567c 4cbe
00000220: 1e15 6dbe 01af 1a3e 3cea d03c 1c7a b83d
00000230: e720 5a3e 35ff 4fbb add6 d33e 0876 d83d
00000240: 5e1a 453e a0fe 30be b4de 8b3d c201 213e
00000250: 1b0f 8fbe 6996 f23d c4dc 47bc 3386 1f3d
00000260: c197 11be 470e 03be 6af1 583d 1058 a4bd
00000270: bc76 1b3f 9f13 433d c52d 66bb 84f3 29bf
00000280: 423e 9ebe fb29 283e b9bd 5cbe 2ccc e23d
00000290: 6690 3f3e b67f 0bbe 2a56 4ebe bc7c aa3e
000002a0: 0e21 f73c c840 0d3d fbe7 cebe 3d8a 90bc
000002b0: 1b0f 7abc 60d0 10be dc3a adbd 09a6 10be
000002c0: 8507 e3bd bef1 eabd 7996 7bbd 32bb 473e
000002d0: 981e 19be 9157 d3bd 905a c4be c949 08be
000002e0: cfba 6c3e 0ddf 4ebe aa7c f83d 2233 4abd
000002f0: 4927 893e 6eaa 163d 409f 9abc cb8a 4abe
00000300: 2854 21bd 69f6 113e 41ae 203d c480 9fbb
00000310: 9c8d bd3e 18d3 02be caaf ac3d 75b7 aebd
00000320: 221b cfbd ec3f 0ebd 9ab9 8fbc 7506 0c3d
00000330: 6c7d 2dbc 3763 c2bd 50af 22be 1c71 fbbe
00000340: d959 653e c6a6 e13e eab3 97be fb03 a63e
00000350: f8b2 ce3d 3dc1 43bd a708 d7bc acf1 a5be
00000360: 070d 5c3e 816d 953e e157 edbe 1821 36be
00000370: 2b47 5a3b ca02 71bd 4db8 85be 5cfa 2b3c
00000380: 9bdc 663e 8457 37be 678a fbbb 5a4c 103e
00000390: e9cc 633e d17a 24bd b7af 1ebe c619 a23d
000003a0: 3d4b 6dbe 8f55 09bc 41b0 3e3e de37 f9bd
000003b0: 1b54 84be a9aa 773e 1fd2 a83d c0cf 6d3e
000003c0: 400d d6bd 8d2a 083e 1b81 57be e1a9 ccbe
000003d0: 3ab0 9fbe 9696 8abd 2f45 2b3e 6cdc 0cbd
000003e0: 326d adbe a387 f3bc 15dc c8bd a39b 70be
000003f0: fcd2 c73d 27e1 a73b 6597 08be 169a a2bd

network_body.linear_encoder.seq_layers.2.bias f4 [256]
-0.112862155 -0.06684544 0.00984996 -0.09501771 -0.09731074 -0.070644 -0.060724583 -0.091306284
-0.105504915 -0.06227389 -0.07430456 -0.083930016 0.107727736 -0.14789169 -0.02082188 -0.12585196
-0.117587134 -0.074248865 -0.10683519 -0.033432033 -0.034077156 -0.07696126 -0.13554798 0.018351605
-0.09134445 -0.100615986 -0.08240747 -0.087260276 -0.019110225 0.08428514 -0.12289901 -0.095941305
0.060583472 -0.12995346 -0.024006858 -0.11678311 -0.10459068 0.015517282 -0.0058891755 0.0033138937
-0.060125872 -0.108546905 -0.02587842 -0.11757183 -0.02951014 -0.11874029 -0.1107772 -0.022991536
-0.1161489 -0.046699613 -0.06728822 -0.12504317 -0.07055827 -0.024538936 -0.10065001 -0.10505764
-0.00055715203 -0.10300417 -0.10072811 0.087866865 -0.060080867 -0.039728776 -0.16379213 -0.11441225
-0.06535671 -0.11081295 -0.06522324 -0.05559239 -0.014313248 -0.07273607 -0.08556273 -0.08733293
-0.11694125 -0.112410754 0.052504778 -0.11799207 -0.08886937 -0.10683513 -0.1402625 -0.06697745
-0.10801493 -0.10066539 -0.009463889 -0.08267466 -0.1448697 -0.044609357 -0.0048513245 -0.10064958
-0.11694407 -0.11973002 -0.05865972 -0.06686677 -0.062260788 -0.04601367 -0.102628656 -0.073618665
-0.032562904 -0.10412612 -0.07324483 -0.07463738 -0.023194568 -0.09530836 -0.10191141 -0.14783198
-0.05420896 -0.07859439 -0.11601249 -0.013270351 -0.014514631 -0.112841 -0.061651375 -0.020785013
-0.10332636 -0.03816062 -0.02474715 -0.025123365 -0.0063991803 -0.04541046 -0.031639416 0.073156595
-0.011767077 -0.09360358 -0.08500014 -0.1108587 -0.06299663 -0.06036896 -0.12975234 -0.012783778
-0.12976085 -0.033458933 -0.02570743 -0.10010212 -0.007707626 -0.07398427 -0.044827014 -0.04115979
-0.060232002 -0.06481035 -0.08350518 -0.07892811 -0.0902529 -0.09888496 -0.0520266 -0.10480344
-0.062476818 -0.043362223 -0.09509939 -0.08138563 -0.13519852 -0.10730345 0.0134865325 -0.035947174
0.021554744 -0.10529944 -0.07955505 -0.02269606 -0.08662594 -0.034324132 -0.08000575 -0.08544599
-0.09007465 -0.001345049 0.08071225 -0.02654049 -0.0117134005 -0.07814706 -0.087366685 -0.07584952
-0.09411762 -0.124708295 -0.039350104 0.021141097 -0.02771721 -0.07490566 -0.07699509 -0.045269966
-0.025102759 0.01458385 -0.07701488 -0.108364575 0.0061198585 -0.062651746 -0.11451753 -0.074921004
-0.030404216 -0.09649523 -0.035753995 -0.055137046 0.048372377 -0.047329642 -0.058428593 -0.100235395
-0.033172324 -0.11367379 -0.08066284 -0.108604595 -0.13585608 -0.03080555 -0.12046479 -0.09746007
-0.08402793 -0.061246797 -0.03572159 -0.06085396 -0.07371044 0.030778639 -0.0025394668 -0.04018793
-0.003508906 -0.10222636 -0.08975245 -0.097976744 -0.10319987 -0.10377739 -0.060037535 -0.08421728
-0.08002806 -0.030144015 -0.0947897 -0.04912981 -0.031406876 -0.106063016 -0.07692754 -0.07733996
-0.051845614 -0.036836434 -0.09229941 -0.10037222 -0.010672194 -0.11528117 -0.062105212 -0.008035664
-0.09654883 -0.03719236 -0.09741194 -0.09410365 -0.1257812 -0.12198804 -0.09411633 0.013301893
-0.06768016 -0.069548994 -0.014674584 -0.07720595 -0.12316922 -0.13100865 -0.115841515 -0.06492417
-0.019456845 -0.015148463 0.008938972 -0.123430245 -0.10216145 -0.052084234 -0.12941752 -0.023176942
00000000: 4624 e7bd 43e6 88bd ba61 213c a598 c2bd
00000010: da4a c7bd cdad 90bd 57ba 78bd cafe babd
00000020: f612 d8bd e812 7fbd fd2c 98bd 80e3 abbd
00000030: 5ca0 dc3d eb70 17be a692 aabc 56df 00be
00000040: 86d1 f0bd ca0f 98bd 68cc dabd 07f0 08bd
00000050: 7d94 0bbd dd9d 9dbd 17cd 0abe 1b56 963c
00000060: cd12 bbbd c10f cebd 3fc5 a8bd 84b5 b2bd
00000070: 0c8d 9cbc b09d ac3d 7ab2 fbbd e07c c4bd
00000080: 6026 783d 8512 05be 08aa c4bc fc2b efbd
00000090: a333 d6bd 333c 7e3c fcf9 c0bb e92d 593b
000000a0: 8c46 76bd d74d debd fbfe d3bc 80c9 f0bd
000000b0: 40bf f1bc 1c2e f3bd 28df e2bd bf58 bcbc
000000c0: 79df edbd 1848 3fbd 68ce 89bd 510b 00be
000000d0: db80 90bd e105 c9bc 9821 cebd 7628 d7bd
000000e0: d70d 12ba daf3 d2bd 8a4a cebd 8bf3 b33d
000000f0: 5b17 76bd a4ba 22bd 20b9 27be f850 eabd
00000100: bdd9 85bd e6f1 e2bd c393 85bd d9b4 63bd
00000110: 1d82 6abc a6f6 94bd 833b afbd 9bdb b2bd
00000120: e57e efbd 9c37 e6bd 400f 573d d4a5 f1bd
00000130: 2501 b6bd 60cc dabd f9a0 0fbe 792b 89bd
00000140: ee36 ddbd a829 cebd 6d0e 1bbc 5551 a9bd
00000150: b958 14be 4db8 36bd dcf7 9ebb 5e21 cebd
00000160: 5f80 efbd 0335 f5bd 2d45 70bd 72f1 88bd
00000170: 2b05 7fbd d478 3cbd f92e d2bd 62c5 96bd
00000180: ae60 05bd 1340 d5bd 6301 96bd 7cdb 98bd
00000190: 8902 bebc 0831 c3bd eeb6 d0bd 4461 17be
000001a0: 370a 5ebd 18f6 a0bd f597 edbd e36b 59bc
000001b0: c6ce 6dbc 2f19 e7bd 2786 7cbd 5545 aabc
000001c0: c59c d3bd 4f4e 1cbd 89ba cabc 84cf cdbc
000001d0: 37b0 d1bb 5200 3abd 5598 01bd 20d3 953d
000001e0: b3ca 40bc 3cb3 bfbd 8e14 aebd e309 e3bd
000001f0: 6104 81bd 7145 77bd ccdd 04be 0d73 51bc
00000200: 07e0 04be 3c0c 09bd 6398 d2bc 5702 cdbd
00000210: 4190 fcbb 1185 97bd 889c 37bd 2b97 28bd
00000220: d5b5 76bd 4abb 84bd c404 abbd 10a5 a1bd
00000230: 83d6 b8bd 3384 cabd d819 55bd 30a3 d6bd
00000240: b1e7 7fbd 969c 31bd 78c3 c2bd 82ad a6bd
00000250: 7b71 0abe e9c1 dbbd 9ef6 5c3c 583d 13bd
00000260: 9393 b03c 3ca7 d7bd c2ed a2bd 16ed b9bc
00000270: f168 b1bd 7697 0cbd 0eda a3bd 4ffe aebd
00000280: 0f79 b8bd 5b4c b0ba 774c a53d 716b d9bc
00000290: 90e9 3fbc 910b a0bd 4eed b2bd fe56 9bbd
000002a0: bdc0 c0bd 1067 ffbd 932d 21bd 1830 ad3c
000002b0: 340f e3bc 2368 99bd 9aaf 9dbd 006d 39bd
000002c0: 4da4 cdbc 1af1 6e3c fab9 9dbd 3fee ddbd
000002d0: 1889 c83b 8f4f 80bd 2b88 eabd 2f70 99bd
000002e0: 4312 f9bc 4b9f c5bd c872 12bd 62d7 61bd
000002f0: 1d22 463d badc 41bd d252 6fbd 3748 cdbd
00000300: b4df 07bd cecd e8bd 8f32 a5bd 166c debd
00000310: db1d 0bbe ec5b fcbc 3eb6 f6bd 2599 c7bd
00000320: d616 acbd ecdd 7abd cd50 12bd 0142 79bd
00000330: 80f5 96bd 7c23 fc3c 2f6d 26bb 199c 24bd
00000340: adf5 65bb 0e5c d1bd 22d0 b7bd 08a8 c8bd
00000350: 745a d3bd 3e89 d4bd ebe9 75bd 1c7a acbd
00000360: c0e5 a3bd 95f0 f6bc 1a21 c2bd 573c 49bd
00000370: 7fa4 00bd 9137 d9bd 308c 9dbd 6a64 9ebd
00000380: 115c 54bd cde1 16bd 7907 bdbd f38f cdbd
00000390: 6dda 2ebc 8918 ecbd 0962 7ebd 05a8 03bc
000003a0: 65bb c5bd 0457 18bd e97f c7bd 6ab9 c0bd
000003b0: c9cc 00be ded4 f9bd 10c0 c0bd 2ff0 593c
000003c0: e59b 8abd b46f 8ebd ab6d 70bc 271e 9ebd
000003d0: 2540 fcbd 2227 06be 513e edbd f7f6 84bd
000003e0: f663 9fbc 4231 78bc c474 123c ffc8 fcbd
000003f0: 063a d1bd 4756 55bd 0786 04be 92dd bdbc

network_body.linear_encoder.seq_layers.2.weight f4 [256, 256]
0.069400616 -0.024532013 -0.04861825 -0.046239335 0.046808302 0.08302662 -0.03800052 -0.11301709
-0.098187216 -0.04793111 -0.09418347 -0.031725526 -0.05875007 -0.09837862 0.1169279 -0.18505321
-0.035711396 0.094735086 -0.07859674 0.09046535 -0.035407837 0.05913826 -0.109476656 0.027041374
-0.09371813 0.047483735 0.08085968 0.019173268 0.02427945 0.017306708 -0.04080526 0.09417413
-0.11675486 0.026170494 -0.10484427 -0.07650322 -0.10283549 -0.04391808 0.0005991999 0.025850708
-0.028788717 -0.105180435 0.024958754 0.12813105 -0.061459854 -0.006761515 -0.016146008 -0.084845774
0.046109702 -0.12185087 -0.08160091 -0.07701118 -0.13819997 -0.07220697 -0.11513361 -0.020073548
0.059477437 -0.14899679 -0.02195893 -0.073472194 0.024844455 -0.02746844 -0.046325475 -0.028693277
-0.1477032 0.07232449 -0.07364835 -0.13266353 -0.11149994 0.014145712 -0.040351648 -0.028271642
-0.06748582 -0.06853788 -0.19366106 -0.09669247 -0.08911186 0.039331697 -0.05363871 0.15078162
-0.047427554 0.04611857 -0.0051260567 0.033213854 0.061057273 -0.047481347 -0.05793157 -0.018944727
-0.048875205 -0.06707315 0.028696423 0.053293318 -0.086894736 -0.036108334 -4.7390604e-05 -0.032816816
0.017886117 0.022991734 0.076890185 0.00919832 -0.04783675 -0.09015427 0.20355767 -0.116237134
-0.12530814 -0.056679834 0.09141974 0.05516024 0.032123297 0.08713114 -0.04851227 -0.00089153385
-0.03332671 0.014216606 0.009109025 0.121467225 -0.008335667 0.0832353 -0.13012794 -0.027742073
-0.10691746 0.009586641 -0.06887624 -0.06765877 -0.060226627 0.06761398 -0.046433102 -0.073898934
-0.06759221 -0.047280155 -0.16631773 -0.058075886 0.110626854 -0.047415752 0.085935816 -0.07773436
-0.070124425 -0.07907703 0.16485539 0.10748172 -0.12657174 0.050928704 -0.127993 -0.057580877
-0.12732662 -0.069741815 -0.07401065 0.085794 0.016522361 0.051225238 -0.036005378 -0.09962661
-0.040772956 0.07456996 -0.05105766 -0.087805085 0.040690012 -0.058793128 0.013120648 -0.014554774
-0.06696886 -0.18197381 -0.07194785 -0.060049504 -0.109152034 -0.11314437 -0.045287333 -0.135069
-0.13638176 0.007504717 -0.07047562 -0.058301307 0.085192755 -0.12458223 -0.18434612 -0.050932307
-0.012840853 -0.03820008 0.009873968 0.056618 0.005520808 8.5824104e-05 -0.018471286 -0.019081635
-0.018150885 -0.15787156 -0.121321805 -0.0076891426 -0.01893047 -0.08568016 -0.06206757 -0.0892892
0.056610137 -0.11181557 -0.05094484 -0.019135352 0.031547107 -0.07569867 0.017941771 0.018122267
0.073424704 -0.18234816 0.05033801 0.0590493 -0.018408144 -0.03571085 -0.12370113 -0.04233428
0.060260072 -0.024022229 0.039825153 0.13073888 0.047718212 -0.018922126 -0.009914278 -0.11133324
0.049202956 -0.06286852 -0.0025387655 -0.028071111 0.025816407 0.0323297 -0.036801007 -0.029641168
0.01416496 -0.04053529 0.04064778 -0.15455312 0.038426634 -0.019040156 0.056895945 -0.039996207
-0.046938464 0.057973552 -0.03348816 0.012739686 -0.07915902 -0.1312616 0.08595337 0.085342765
0.057385046 0.060031723 -0.08240172 -0.1556742 -0.05831117 0.00854985 -0.020006636 0.1577181
-0.004118566 0.03514839 0.023069872 -0.04980429 -0.17360742 -0.08713994 -0.0015670268 -0.066773765
00000000: e921 8e3d 5cf7 c8bc ee23 47bd 7565 3dbd
00000010: 10ba 3f3d dc09 aa3d 6fa6 1bbd 8175 e7bd
00000020: 6116 c9bd 6953 44bd 43e3 c0bd a0f2 01bd
00000030: eaa3 70bd bb7a c9bd e577 ef3d 977e 3dbe
00000040: 1d46 12bd 7804 c23d 54f7 a0bd e645 b93d
00000050: cf07 11bd f63a 723d 4c35 e0bd df85 dd3c
00000060: 4aef bfbd 4e7e 423d c399 a53d 4211 9d3c
00000070: b2e5 c63c ccc6 8d3c 6b23 27bd 5ede c03d
00000080: 2c1d efbd 8163 d63c 98b8 d6bd b8ad 9cbd
00000090: 6a9b d2bd 72e3 33bd a013 1d3a ddc4 d33c
000000a0: 51d6 ebbc d768 d7bd 4d76 cc3c c934 033e
000000b0: 54bd 7bbd b38f ddbb a244 84bc 9fc3 adbd
000000c0: 87dd 3c3d f38c f9bd 611e a7bd 0ab8 9dbd
000000d0: 4b84 0dbe 3fe1 93bd 2ccb ebbd 4871 a4bc
000000e0: 9d9e 733d 9d92 18be 37e3 b3bc 9778 96bd
000000f0: 9986 cb3c 7e05 e1bc c8bf 3dbd 2a0e ebbc
00000100: 823f 17be dd1e 943d f2d4 96bd f3d8 07be
00000110: 155a e4bd 6bc3 673c c547 25bd ee99 e7bc
00000120: 0136 8abd 975d 8cbd 164f 46be b406 c6bd
00000130: 4780 b6bd 461a 213d 44b4 5bbd 7f66 1a3e
00000140: 6543 42bd d3e6 3c3d 7bf8 a7bb 400b 083d
00000150: 3117 7a3d cd7b 42bd a749 6dbd f931 9bbc
00000160: 5e31 48bd a65d 89bd c314 eb3c 184a 5a3d
00000170: def5 b1bd 55e6 13bd 46c5 46b8 ed6a 06bd
00000180: e885 923c 2959 bc3c 9a78 9d3d 8db4 163c
00000190: 78f0 43bd cda2 b8bd 6c71 503e bc0d eebd
000001a0: c750 00be 1d29 68bd 463a bb3d b4ef 613d
000001b0: b893 033d d071 b23d cdb4 46bd d3b5 69ba
000001c0: 9781 08bd c4ec 683c 053e 153c cfc3 f83d
000001d0: 5292 08bc 4577 aa3d 4240 05be 5843 e3bc
000001e0: 8bf7 dabd 4911 1d3c fc0e 8dbd ae90 8abd
000001f0: 32b0 76bd 3379 8a3d a330 3ebd 5358 97bd
00000200: c96d 8abd d6a8 41bd 324f 2abe fbe0 6dbd
00000210: 5590 e23d 0537 42bd 1eff af3d 3133 9fbd
00000220: 659d 8fbd 23f3 a1bd dacf 283e 601f dc3d
00000230: 069c 01be 9e9a 503d 9910 03be edd9 6bbd
00000240: e961 02be ccd4 8ebd e592 97bd c4b4 af3d
00000250: e759 873c 8ed1 513d 607a 13bd 0909 ccbd
00000260: 8b01 27bd 23b8 983d d621 51bd 27d3 b3bd
00000270: 92aa 263d 10d1 70bd fdf7 563c 2677 6ebc
00000280: f826 89bd 5857 3abe 6559 93bd 78f6 75bd
00000290: 1a8b dfbd 3cb8 e7bd 367f 39bd 874f 0abe
000002a0: a9a7 0bbe 21ea f53b 8655 90bd 5acd 6ebd
000002b0: 8a79 ae3d f824 ffbd 3bc5 3cbe 659e 50bd
000002c0: 7162 52bc b077 1cbd 6cc6 213c 47e8 673d
000002d0: e5e7 b43b 77fc b338 1851 97bc 1751 9cbc
000002e0: 2ab1 94bc 15a9 21be 9177 f8bd 34f5 fbbb
000002f0: 1314 9bbc 1479 afbd 903a 7ebd 42dd b6bd
00000300: 08e0 673d 90ff e4bd 89ab 50bd bec1 9cbc
00000310: 8a37 013d e807 9bbd 9ffa 923c 2675 943c
00000320: b15f 963d 7ab9 3abe 3b2f 4e3d aedd 713d
00000330: adcc 96bc 8a45 12bd 0557 fdbd b666 2dbd
00000340: 44d3 763d 44ca c4bc b31f 233d 6ae0 053e
00000350: 2c74 433d 9302 9bbc 7f6f 22bc af02 e4bd
00000360: 0a89 493d 36c1 80bd 6b61 26bb 63f5 e5bc
00000370: ee7c d33c 266c 043d a7bc 16bd 09d2 f2bc
00000380: 2614 683c 5508 26bd 497e 263d 2c43 1ebe
00000390: 3f65 1d3d 1afa 9bbc b90b 693d 10d3 23bd
000003a0: 8c42 40bd ad75 6d3d e22a 09bd 1eba 503c
000003b0: 201e a2bd 7169 06be 5208 b03d 30c8 ae3d
000003c0: 950c 6b3d d3e3 753d 3cc2 a8bd 0f69 1fbe
000003d0: b2d7 6ebd ac14 0c3c f5e4 a3bc db80 213e
000003e0: 09f5 86bb c2f7 0f3d 07fd bc3c 95ff 4bbd
000003f0: 25c6 31be 6d76 b2bd b264 cdba afc0 88bd

network_body.vector_processors.0.normalizer.running_mean f4 [35]
0.5904543 0.3927039 0.01684228 0.20070481 0.49779385 0.49209344 0.010111059 0.26971197
0.84607095 0.15086536 0.0030628436 0.11452405 0.7377345 0.25846323 0.0037994958 0.26147327
0.7605508 0.23145346 0.007992874 0.14471142 0.34056672 0.43106905 0.22836466 0.28650776
0.35749987 0.5572487 0.08524985 0.1833375 0.3324592 0.23919998 0.4283396 0.4598751
0.002045035 0.03196407 0.08319512
00000000: 0328 173f 7c10 c93e d2f8 893c 9085 4d3e
00000010: d6de fe3e acf3 fb3e dba8 253c b017 8a3e
00000020: 1b98 583f 737c 1a3e fdb9 483b 968b ea3d
00000030: 2bdc 3c3f 4b55 843e f600 793b d3df 853e
00000040: 75b3 423f 2302 6d3e 8bf4 023c 3b2f 143e
00000050: c35e ae3e 15b5 dc3e 6dd8 693e 25b1 923e
00000060: 390a b73e daa7 0e3f 7997 ae3d d3bc 3b3e
00000070: 1838 aa3e d7f0 743e 544f db3e c074 eb3e
00000080: fe05 063b c2ec 023d 3462 aa3d
