Assets/Testing/SkrozLijevo.onnx (onnx, 304843 bytes, 9 tensors)

62 f4 [35]
0.49742997 0.49614686 0.10580557 0.18108186 0.49943918 0.4996334 0.067238525 0.1679399
0.32895774 0.3248192 0.059691273 0.12755215 0.4209884 0.4199423 0.04030072 0.12020917
0.4219001 0.41932556 0.063177764 0.13334052 0.46178427 0.49936074 0.4122129 0.39569917
0.44518396 0.48023394 0.2839078 0.29021353 0.47430238 0.42176023 0.4946108 0.46616966
0.43547404 0.0026518628 0.43569067
00000000: 24af fe3e f606 fe3e 97b0 d83d 866d 393e
00000010: 7eb6 ff3e f3cf ff3e 5ab4 893d 70f8 2b3e
00000020: 266d a83e b44e a63e d67e 743d 089d 023e
00000030: cb8b d73e ad02 d73e 5e12 253d 3a30 f63d
00000040: 4a03 d83e d7b1 d63e 5863 813d 6b8a 083e
00000050: fd6e ec3e 36ac ff3e 920d d33e 1599 ca3e
00000060: 27ef e33e 39e1 f53e 5d5c 913e de96 943e
00000070: c3d7 f23e f5f0 d73e a03d fd3e caad ee3e
00000080: 74f6 de3e e0ca 2d3b d912 df3e

action_model._continuous_distribution.log_sigma f4 [1, 2]
-0.9082404 -1.1530648
00000000: 7182 68bf a197 93bf

action_model._continuous_distribution.mu.bias f4 [2]
0.004569394 0.1844137
00000000: dbba 953b f2d6 3c3e

action_model._continuous_distribution.mu.weight f4 [2, 256]
-0.003930712 0.0637031 -0.10180205 0.10433231 -0.14476043 0.02574946 0.032660946 -0.00027550585
0.0030362487 -0.0008647893 -0.09805756 -0.04048212 -0.025221413 -0.046165407 0.053760115 0.009897341
0.05495585 -0.11034229 -0.053121474 -0.0011678349 0.08495208 -0.11854871 -0.0062197675 -0.04000566
-0.024597483 -0.0038125098 -0.07354649 0.0602282 -0.0091746105 0.0005756241 -0.068449765 -0.17497203
0.14429128 -0.08471409 -0.17109245 0.07871937 -0.09670699 -0.023560308 -0.016663698 -0.109249175
-0.0069736247 -0.012214471 -0.02032903 0.058328524 -0.019508833 -0.110340275 -0.0013399973 0.12932448
-0.0018199681 -0.061398283 -0.066865675 -0.00059815485 0.014504136 -0.022241076 -0.050000455 -0.10471164
-0.04948821 -0.002779196 -0.02290051 -0.095343314 -0.034669705 0.04454858 -0.06607924 0.08370826
0.009966163 -0.026966827 0.08190558 -0.12438964 0.016825803 -0.0293942 0.010932023 -0.10867972
0.069303 -0.09770252 -0.09330578 0.001105908 -0.07006752 0.047754724 0.15637784 -0.09951424
0.17341678 9.916447e-05 0.015950719 -0.020589344 -0.00786379 -0.020687174 0.12564604 -0.0030443626
-0.004872882 0.06776384 -0.01532924 0.0152698355 -0.0006652094 -0.022055233 -0.16420098 -0.05530815
-0.0018290686 -0.0012490732 -0.03825912 0.02044457 -0.113374345 -0.08648804 -0.08254173 0.0030405677
0.14625716 0.05755612 -0.0031333053 0.0022708164 0.0012751595 -0.03794107 -0.046164628 -0.010725354
0.044140812 -0.1230602 -0.00989516 -0.050852768 -0.033796616 -0.09702508 -0.013476126 -0.033242416
-0.007924721 -0.15556706 0.04337162 0.03891824 -0.0010687938 -0.1386441 -0.059688054 -0.00080447015
0.05837703 -0.0009924195 -0.0022140506 -0.13186291 0.07643881 0.11273846 0.05534872 -0.049015127
0.026428545 -0.01015799 0.043696675 -0.017552275 -0.008093523 -0.036583133 -0.057014562 0.07712174
-0.045360737 0.0120326355 -0.0012311685 0.045377735 -0.02854273 -0.14200126 0.051102415 -0.11138263
-0.00053062174 0.08728531 -0.053908702 0.07981074 0.04996099 -0.067442216 -0.08623733 -0.063617565
0.0008534037 -0.097120844 -0.0066407016 -0.12032591 0.012767822 -0.1181933 0.028751455 0.09796998
0.00984479 0.00984657 -0.031116439 0.100249894 -0.053696435 -0.05635584 0.074309036 0.03446826
-0.0898921 -0.0001807604 -0.112142906 0.0028298807 -0.063312955 0.062666394 -0.11914997 0.076868415
0.07098111 -0.04306743 -0.0023099456 -0.1188458 -0.07228346 0.10066239 -0.016015988 -0.074658334
0.022519147 0.0008095751 -0.014860047 0.06479141 -0.04460576 -0.032017212 -0.0035851477 -0.06582294
0.04669929 0.041678414 -0.028140385 0.06563785 -0.07333833 -0.007561407 -0.010937439 -0.07383965
-0.028708003 -0.036668226 -0.09936971 0.06750048 -0.03861498 0.20054463 -0.09136812 0.005540381
-0.008749721 0.065672226 -0.066366054 0.03949423 0.07228358 -0.04964431 -0.031381946 -0.15435669
0.124263525 -0.059922606 0.16269025 0.056675576 0.015930412 0.012272193 -0.06307467 -0.04936894
-0.038235992 0.026200822 -0.004189542 0.056716274 0.093531445 -0.16972856 -0.14556625 -0.027836947
-0.03479882 -0.023101352 0.11941425 0.09780655 -0.06095471 0.007880813 0.07875611 0.0086745
-0.124240346 -0.0013780943 0.07364968 -0.03976481 -0.093780965 -0.01025685 -0.013646075 -0.09722675
00000000: 34cd 80bb c576 823d 987d d0bd 2eac d53d
00000010: 143c 14be 88f0 d23c 7cc7 053d c571 90b9
00000020: cdfb 463b 07b3 62ba 67d2 c8bd 94d0 25bd
00000030: 239d cebc f017 3dbd 9133 5c3d 7528 223c
00000040: 6319 613d 23fb e1bd e795 59bd 0912 99ba
00000050: 5bfb ad3d abc9 f2bd 31cf cbbb fadc 23bd
00000060: a980 c9bc 4ddb 79bb 8b9f 96bd d8b1 763d
00000070: 1b51 16bc 7be5 163a 642f 8cbd de2b 33be
00000080: 18c1 133e 957e adbd dc32 2fbe 9f37 a13d
00000090: 500e c6bd 8c01 c1bc 4f82 88bc 08be dfbd
000000a0: 0183 e4bb 341f 48bc 1189 a6bc e4e9 6e3d
000000b0: fdd0 9fbc 15fa e1bd d9a2 afba a36d 043e
000000c0: ff8b eeba c47c 7bbd dff0 88bd 7ecd 1cba
000000d0: c1a2 6d3c eb32 b6bc 47cd 4cbd 0e73 d6bd
000000e0: 26b4 4abd 2c23 36bb da99 bbbc 5b43 c3bd
000000f0: d201 0ebd 9278 363d 8d54 87bd 3c6f ab3d
00000100: 1e49 233c 89e9 dcbc 1dbe a73d ffbf febd
00000110: 44d6 893c 1bcc f0bc 3a1c 333c 7993 debd
00000120: bbee 8d3d 4218 c8bd 1a17 bfbd 1df4 903a
00000130: 8f7f 8fbd 759a 433d 8321 203e 1fce cbbd
00000140: 2b94 313e 85f6 cf38 15ab 823c fcaa a8bc
00000150: 20d7 00bc 2678 a9bc 5ba9 003e ee83 47bb
00000160: b2ac 9fbb c5c7 8a3d 7e27 7bbc 552e 7a3c
00000170: 7261 2eba 2dad b4bc 4d24 28be cc8a 62bd
00000180: 5cbd efba f1b7 a3ba 98b5 1cbd 5f7b a73c
00000190: cf30 e8bd a420 b1bd a30b a9bd 4344 473b
000001a0: 70c4 153e f7bf 6b3d 2458 4dbb fad1 143b
000001b0: 4123 a73a 1868 1bbd 1f17 3dbd 65b9 2fbc
000001c0: ffcc 343d fc06 fcbd 4f1f 22bc fe4a 50bd
000001d0: 526e 0abd 16b5 c6bd f8ca 5cbc 3329 08bd
000001e0: b0d6 01bc f94c 1fbe 71a6 313d bc68 1f3d
000001f0: c516 8cba b8f8 0dbe 767b 74bd 14e3 52ba
00000200: c11c 6f3d 1314 82ba 9b19 11bb 1207 07be
00000210: f38b 9c3d 6ce3 e63d 57b5 623d 16c4 48bd
00000220: ad80 d83c b36d 26bc 49fb 323d cac9 8fbc
00000230: b29a 04bc 32d8 15bd 1a88 69bd 01f2 9d3d
00000240: 2ecc 39bd 8824 453c 295f a1ba 01de 393d
00000250: 71d2 e9bc c768 11be c450 513d 941c e4bd
00000260: 6c19 0bba a4c2 b23d 5fcf 5cbd d073 a33d
00000270: e5a3 4c3d 251f 8abd 339d b0bd ed49 82bd
00000280: f4b6 5f3a 4be7 c6bd 3e9a d9bb 6e6d f6bd
00000290: 2030 513c 540f f2bd 2c88 eb3c 7ca4 c83d
000002a0: 0b4c 213c 8253 213c e7e7 febc d14f cd3d
000002b0: cbf0 5bbd 62d5 66bd 562f 983d 972e 0d3d
000002c0: 5919 b8bd 808a 3db9 2eab e5bd 8575 393b
000002d0: 39aa 81bd 3d57 803d e604 f4bd 306d 9d3d
000002e0: 8b5e 913d 7967 30bd 7562 17bb 6d65 f3bd
000002f0: 5a09 94bd 1528 ce3d f633 83bc 78e6 98bd
00000300: 137a b83c aa39 543a 8e77 73bc 5cb1 843d
00000310: 88b4 36bd 7b24 03bd ccf4 6abb 2dce 86bd
00000320: c147 3f3d fcb6 2a3d aa86 e6bc 236d 863d
00000330: 6832 96bd aec5 f7bb f232 33bc 3e39 97bd
00000340: 0c2d ebbc 6c31 16bd 5982 cbbd b13d 8a3d
00000350: be2a 1ebd 925b 4d3e 351f bbbd 168c b53b
00000360: fd5a 0fbc 297f 863d edea 87bd b4c4 213d
00000370: 6a09 943d d557 4bbd 5b8a 00bd ae0f 1ebe
00000380: e07d fe3d 6871 75bd 4698 263e a624 683d
00000390: 7f80 823c 4f11 493c 4b2d 81bd 1637 4abd
000003a0: 589d 1cbd 1ba3 d63c 6d48 89bb 534f 683d
000003b0: 6a8d bf3d 53cd 2dbe 520f 15be 4f0a e4bc
000003c0: 3589 0ebd 0c3f bdbc 758f f43d cd4e c83d
000003d0: a5ab 79bd 871e 013c e24a a13d 7d1f 0e3c
000003e0: b971 febd 2ca1 b4ba a5d5 963d 6de0 22bd
000003f0: 3c10 c0bd 590c 28bc c993 5fbc d11e c7bd

network_body.linear_encoder.seq_layers.0.bias f4 [256]
-0.06355499 -0.19263661 0.16963664 -0.020722337 -0.085349925 -0.09449554 -0.085269466 -0.19676518
-0.027219309 -0.016505202 -0.11449437 -0.1400443 -0.2114016 -0.07583744 -0.07216054 -0.041828733
-0.049595863 0.06353629 -0.061917227 -0.049486294 0.08161546 -0.057823535 0.16315773 -0.01886644
-0.20782657 -0.02237976 -0.068614095 0.03339343 -0.1772412 0.09807075 0.106887236 0.054753058
0.025714196 0.06295758 -0.09959578 -0.0010875321 0.038713697 0.04840741 -0.039252393 -0.03486553
-0.18424892 -0.022530237 -0.009665476 0.013221338 -0.0250046 0.02490775 -0.067933865 -0.119960606
-0.123463996 0.08238454 -0.09119872 -0.13160627 -0.017398238 0.06831292 0.048338592 0.14970079
-0.06374733 -0.1294815 0.10091102 0.046242584 -0.021409553 0.065190725 -0.17779756 -0.08518238
0.072011515 -0.033243593 -0.00388275 -0.012895528 0.0419456 -0.027950864 -0.049912155 0.038730554
-0.19341677 0.1107293 0.000831952 -0.122444525 0.1545576 -0.053597834 0.05372017 -0.047402404
0.05540075 -0.069628134 -0.04694716 0.105139926 -0.017175252 -0.19737817 -0.1638159 -0.00069050986
0.023886343 0.08235969 0.05323998 0.027206028 -0.094579056 -0.026587255 -0.11446274 -0.16801032
0.014732414 0.047772184 0.02891224 -0.059771128 -0.09541342 -0.09642586 -0.039244905 0.13311516
-0.1482861 -0.14904755 -0.039625052 -0.11570252 0.056895044 -0.01956911 -0.122879624 0.13164338
0.0071636015 0.12815641 0.074490115 -0.010083339 -0.10279013 -0.09040041 -0.105292186 -0.09938421
-0.016934251 -0.02066229 -0.116720006 -0.1776417 0.10077696 -0.08399192 0.010965924 0.018705504
0.0075080395 -0.112085566 -0.045559265 -0.049636684 -0.1121293 -0.055392176 -0.09895133 -0.056079198
-0.090304285 0.05328093 0.18110082 -0.025940923 -0.036230106 -0.05926888 -0.0061298204 -0.06402206
0.05105975 -0.12214215 -0.09303742 -0.08348502 -0.03968672 0.09340144 -0.0032591785 0.00961213
0.048126694 -0.15304755 -0.1763058 0.078379646 -0.0049565877 -0.069487534 -0.05240732 -0.086827
0.042376503 -0.023074385 0.055979338 0.1605779 -0.16196539 0.013596272 -0.15104239 0.03442522
-0.116614155 -0.010948156 0.16892293 0.13995497 0.1054023 0.012524632 -0.08989709 0.062352814
0.20546852 -0.1551014 -0.03548886 0.047206905 0.06109256 -0.0018756165 0.0010953846 -0.06833878
-0.0577747 0.1163615 -0.07291397 -0.009667545 0.009058618 0.10492927 0.0006680683 -0.10821529
0.09545488 0.00299087 -0.009129918 -0.00782553 0.025597908 0.048631635 -0.025256392 0.10235825
-0.006993412 0.14922678 -0.052564938 -0.0571882 0.057986647 0.008863068 -0.18268937 -0.05073554
-0.08032493 -0.15062366 -0.019407526 -0.07566683 0.11557205 -0.088521056 0.049799956 -0.058294002
-0.053309366 -0.105534434 -0.08587855 -0.13808541 -0.14349526 0.04727447 0.017606122 0.026700562
0.13193053 -0.06786089 0.030577516 0.039967492 0.10448032 -0.017782617 -0.067339815 -0.12543504
0.0019639898 -0.10149718 -0.12707083 0.0036293727 -0.032595646 -0.10857691 -0.031801213 -0.27397206
-0.028800417 -0.08756533 -0.016408922 -0.22374824 0.09965804 0.10662861 -0.09613663 -0.025442332
-0.062803134 -0.05506591 -0.016857838 -0.04751561 -0.06952247 -0.10731004 -0.021857025 -0.0102360705
00000000: 1e29 82bd 8842 45be 3ab5 2d3e e4c1 a9bc
00000010: f1cb aebd e186 c1bd c2a1 aebd d07c 49be
00000020: 07fb debc eb35 87bc 067c eabd c667 0fbe
00000030: a979 58be a950 9bbd e8c8 93bd 9b54 2bbd
00000040: 0825 4bbd 501f 823d eb9c 7dbd 24b2 4abd
00000050: 0226 a73d 5fd8 6cbd d212 273e cb8d 9abc
00000060: 7dd0 54be c255 b7bc 8c85 8cbd 8dc7 083d
00000070: b87e 35be 51d9 c83d b2e7 da3d be44 603d
00000080: 94a6 d23c e7ef 803d dff8 cbbd 868b 8eba
00000090: 4192 1e3d d946 463d 1ec7 20bd 28cf 0ebd
000000a0: c0ab 3cbe 5591 b8bc f25b 1ebc 509e 583c
000000b0: 72d6 ccbc 560b cc3c e920 8bbd e8ad f5bd
000000c0: b1da fcbd 3ab9 a83d 65c6 babd cbc3 06be
000000d0: c086 8ebc a5e7 8b3d b0fe 453d 2a4b 193e
000000e0: f68d 82bd cc96 04be 70aa ce3d dd68 3d3d
000000f0: 1663 afbc b782 853d 9010 36be 1a74 aebd
00000100: c67a 933d 6f2a 08bd bc75 7ebb c447 53bc
00000110: 26cf 2b3d 36f9 e4bc b070 4cbd eea3 1e3d
00000120: 0c0f 46be 0bc6 e23d 5b17 5a3a 32c4 fabd
00000130: 5944 1e3e 6789 5bbd ae09 5c3d 0629 42bd
00000140: e6eb 623d 3299 8ebd aa4b 40bd 9a53 d73d
00000150: 1db3 8cbc 811d 4abe 5bbf 27be 5503 35ba
00000160: 4bad c33c 32ac a83d 2a12 5a3d 2ddf de3c
00000170: aab2 c1bd 84cd d9bc 716b eabd e60a 2cbe
00000180: 3960 713c c4ac 433d 5dd9 ec3c 92d2 74bd
00000190: 1c68 c3bd ec7a c5bd 44bf 20bd 574f 083e
000001a0: 50d8 17be ec9f 18be e14d 22bd 71f5 ecbd
000001b0: c70a 693d 664f a0bc 50a8 fbbd 86cd 063e
000001c0: a5bc ea3b 6f3b 033e 468e 983d 9734 25bc
000001d0: a283 d2bd da23 b9bd 6ea3 d7bd f389 cbbd
000001e0: b3b9 8abc f643 a9bc e60a efbd b5e7 35be
000001f0: 2764 ce3d f503 acbd 6baa 333c 493c 993c
00000200: 0006 f63b 1e8d e5bd 5a9c 3abd d64f 4bbd
00000210: 0ca4 e5bd e8e2 62bd ffa6 cabd 4db3 65bd
00000220: 74f1 b8bd 1b3d 5a3d 7e72 393e 0f82 d4bc
00000230: 0566 14bd edc3 72bd a9dc c8bb ff1d 83bd
00000240: 0724 513d aa25 fabd 678a bebd 32fa aabd
00000250: 8b8e 22bd 4149 bf3d f197 55bb 327c 1d3c
00000260: 7f20 453d 7fb8 1cbe 8289 34be 8285 a03d
00000270: df6a a2bb 7b4f 8ebd 0fa9 56bd 5bd2 b1bd
00000280: fc92 2d3d 7e06 bdbc 974a 653d 886e 243e
00000290: 41da 25be e6c2 5e3c dbaa 1abe 7601 0d3d
000002a0: 67d3 eebd e55f 33bc 22fa 2c3e 5b50 0f3e
000002b0: 29dd d73d 1d34 4d3c f71b b8bd aa65 7f3d
000002c0: 5766 523e e7d2 1ebe c45c 11bd 075c 413d
000002d0: 313c 7a3d 3fd7 f5ba 0293 8f3a 34f5 8bbd
000002e0: 2aa5 6cbd f04e ee3d eb53 95bd 9f64 1ebc
000002f0: 996a 143c 28e5 d63d 4e21 2f3a fa9f ddbd
00000300: d97d c33d 7902 443b a795 15bc a736 00bc
00000310: b4b2 d13c f731 473d 7ee6 cebc 34a1 d13d
00000320: fe28 e5bb e8ce 183e 554e 57bd 2d3e 6abd
00000330: 6883 6d3d 6736 113c ec12 3bbe 12d0 4fbd
00000340: 6681 a4bd 173d 1abe 88fc 9ebc 36f7 9abd
00000350: 0ab1 ec3d 874a b5bd 0afb 4b3d b1c5 6ebd
00000360: ec5a 5abd 7022 d8bd 18e1 afbd 4366 0dbe
00000370: 6cf0 12be e0a2 413d b73a 903c 23bb da3c
00000380: cc18 073e a6fa 8abd b37d fa3c f4b4 233d
00000390: c7f9 d53d daac 91bc 75e9 89bd 0b72 00be
000003a0: 48b6 003b c1dd cfbd db1e 02be c5da 6d3b
000003b0: 0383 05bd 925d debd fd41 02bd 1146 8cbe
000003c0: daee ebbc 7455 b3bd 016c 86bc 421e 65be
000003d0: 8419 cc3d 1a60 da3d 48e3 c4bd 706c d0bc
000003e0: ee9e 80bd cb8c 61bd 7319 8abc ba9f 42bd
000003f0: cc61 8ebd 5ec5 dbbd 810d b3bc 31b5 27bc

network_body.linear_encoder.seq_layers.0.weight f4 [256, 35]
0.27789587 -0.20471406 0.24593368 0.05356949 0.01020458 -0.05067615 -0.18384486 -0.21466716
0.14350122 0.042173363 0.072746344 -0.14074057 0.00090042764 -0.018955305 -0.11217189 -0.13371964
-0.119571835 0.021556702 0.19507593 -0.27904463 -0.14115615 0.105739124 -0.39339057 -0.09678925
0.028117416 0.10162345 0.08051733 0.20451774 -0.056173567 0.032514982 -0.22766997 -0.37322083
-0.10424577 0.25273412 0.19907624 0.258315 -0.17184763 0.06545662 0.20698291 0.17270033
0.019267887 0.053758856 -0.5106879 0.088615164 0.04737132 0.08202662 0.0032004393 0.058553338
0.18531898 0.2854696 -0.07252154 0.27237695 0.18651181 0.093535095 -0.24140324 -0.2964505
0.25515592 0.17862225 -0.1742997 -0.1523114 0.21577923 0.0071516926 -0.21965845 0.2531258
0.035044115 -0.41764182 0.0046929293 -0.054099593 -0.21825765 -0.08758955 -0.23052154 -0.03304507
0.087373935 0.18739434 -0.30161968 0.14289553 -0.2884114 0.14668581 -0.14420874 -0.15324457
-0.22510135 0.07522678 0.25941178 -0.25666362 -0.16259949 0.32710925 -0.27742293 0.14531784
-0.10692553 -0.02009955 -0.00032187393 -0.39339083 0.081256524 -0.0859974 0.04170124 0.1630065
-0.22304296 -0.23339446 -0.12102855 -0.020069456 0.25899667 0.12834255 -0.22926874 0.038354132
-0.18411952 -0.004899041 0.17252979 -0.35731283 0.24036743 0.084690645 0.094746806 0.14226502
0.057319272 -0.13266514 0.07305948 -0.01743102 0.234303 -0.07109317 -0.011611568 -0.48590207
-0.23833634 0.3206715 0.17973159 -0.21442685 0.36249208 -0.10750744 -0.09583733 -0.40548965
0.10576955 0.18529412 -0.006710064 -0.1824372 -0.0852126 -0.19718678 -0.009784688 0.0020292809
0.06260819 0.0642744 0.13182971 -0.30235904 -0.14423847 0.039209265 0.16111685 -0.30409995
-0.092133485 -0.14960219 0.18044327 0.34662586 0.027284188 -0.050754767 0.3877784 -0.40394744
0.16185339 0.11808976 -0.16108845 0.20821765 0.059322845 -0.04779078 -0.0068014 -0.15931888
-0.11296225 0.051397383 -0.13318643 0.026976418 -0.18515146 -0.04233864 -0.055899043 -0.113376915
0.0492457 0.11586027 -0.17717867 -0.1424353 0.6268544 -0.30171546 0.25790825 0.118645795
0.031890005 0.1372492 0.31620535 0.050881226 0.1452255 -0.040102955 0.0065965597 -0.12477469
0.2274243 -0.07293018 -0.006007286 0.1268244 0.07045598 -0.22389086 -0.47440004 0.11692
-0.25605905 0.042621396 -0.1300061 0.08961764 0.15747829 -0.29769856 0.009167824 -0.20432779
0.09399177 0.25718936 -0.12886505 0.0823407 0.2157026 0.005155443 0.047285523 0.181393
0.1679832 0.059437092 -0.04876541 0.09972284 -0.043972317 0.22314383 0.29008782 -0.07180281
0.07299719 -0.54462963 0.16102614 0.24078993 -0.06286179 0.09392168 0.05354697 0.12178147
-0.08015897 0.022447577 0.19533868 0.035178915 -0.06553245 0.13815197 -0.108535595 0.5460265
-0.3849903 0.00962868 0.25163636 0.03311099 0.14000957 0.31507832 0.25091884 0.22473842
0.31592506 -0.004288155 -0.025650926 0.01950602 0.08097181 0.14839448 -0.23932904 0.12776402
-0.1667033 -0.117457055 -0.034392443 -0.13987593 0.12671828 0.1589452 0.10891326 0.03824424
00000000: 5e48 8e3e 90a0 51be 0ad6 7b3e ae6b 5b3d
00000010: 1c31 273c cb91 4fbd d441 3cbe b5d1 5bbe
00000020: fcf1 123e fabd 2c3d 09fc 943d 4c1e 10be
00000030: ad0a 6c3a 2848 9bbc 60ba e5bd cded 08be
00000040: 14e2 f4bd ae97 b03c fcc1 473e f0de 8ebe
00000050: 3d8b 10be c18d d83d 7d6a c9be 7139 c6bd
00000060: 7f56 e63c f51f d03d 45e6 a43d 196d 513e
00000070: 4116 66bd 6e2e 053d 5122 69be cd16 bfbe
00000080: ce7e d5bd 5e66 813e a4da 4b3e dd41 843e
00000090: d3f8 2fbe 1f0e 863d 54f3 533e 5bd8 303e
000000a0: b0d7 9d3c 3f32 5c3d 71bc 02bf de7b b53d
000000b0: 6e08 423d 93fd a73d 76be 513b a0d5 6f3d
000000c0: 42c4 3d3e 1229 923e 2c86 94bd fe74 8b3e
000000d0: f4fc 3e3e 548f bf3d 6932 77be 5cc8 97be
000000e0: cca3 823e c0e8 363e 9f7b 32be 85f7 1bbe
000000f0: 3bf5 5c3e bf58 ea3b 25ee 60be b499 813e
00000100: 6b8a 0f3d 26d5 d5be 25c7 993b 8997 5dbd
00000110: ef7e 5fbe 2662 b3bd d70d 6cbe 445a 07bd
00000120: 1bf1 b23d 4de4 3f3e e56d 9abe 3553 123e
00000130: a9aa 93be ce34 163e 75ab 13be 25ec 1cbe
00000140: f880 66be 7f10 9a3d 9fd1 843e 6a69 83be
00000150: 7b80 26be dd7a a73e 610a 8ebe 33ce 143e
00000160: c6fb dabd d0a7 a4bc 30c1 a8b9 866a c9be
00000170: d269 a63d 681f b0bd ebce 2a3d 2deb 263e
00000180: 6065 64be f5fe 6ebe d1dd f7bd b368 a4bc
00000190: 369b 843e 3b6c 033e 6dc5 6abe 3919 1d3d
000001a0: d489 3cbe 2288 a0bb a6ab 303e b5f1 b6be
000001b0: e122 763e 4a72 ad3d 9d0a c23d ecad 113e
000001c0: 9dc7 6a3d 5fd9 07be 35a0 953d 80cb 8ebc
000001d0: 20ed 6f3e 4c99 91bd 723e 3ebc 28c8 f8be
000001e0: 710e 74be 0e2f a43e 8f0b 383e b692 5bbe
000001f0: 9098 b93e dc2c dcbd 5d46 c4bd 579c cfbe
00000200: b59d d83d bebd 3d3e 19e0 dbbb d1d0 3abe
00000210: f283 aebd 55eb 49be f54f 20bc affd 043b
00000220: b938 803d 4ca2 833d 5efe 063e cece 9abe
00000230: 40b3 13be e599 203d d1fb 243e fdb2 9bbe
00000240: 7bb0 bcbd 5131 19be 1fc6 383e f278 b13e
00000250: 1783 df3c 3be4 4fbd e48a c63e 33d2 cebe
00000260: e5bc 253e 0bd9 f13d 5ff4 24be 0237 553e
00000270: 83fc 723d 44c0 43bd 47de debb 7d24 23be
00000280: c158 e7bd 1086 523d 0662 08be a6fd dc3c
00000290: 5898 3dbe 486b 2dbd 65f6 64bd 2832 e8bd
000002a0: dcb5 493d 2648 ed3d 536e 35be 8fda 11be
000002b0: 8879 203f 737a 9abe 8d0c 843e 91fc f23d
000002c0: 189f 023d 0e8b 0c3e abe5 a13e d568 503d
000002d0: feb5 143e ff42 24bd f427 d83b df89 ffbd
000002e0: eae1 683e 6b5c 95bd c4d8 c4bb 41de 013e
000002f0: 3a4b 903d a543 65be 90e4 f2be c173 ef3d
00000300: 2c1a 83be c693 2e3d 5220 05be 7489 b73d
00000310: fd41 213e f26b 98be a434 163c 4e3b 51be
00000320: c27e c03d 53ae 833e 33f5 03be 3ea2 a83d
00000330: 24e1 5c3e feee a83b 77ae 413d 16bf 393e
00000340: ca03 2c3e 4f74 733d 3dbe 47bd 7d3b cc3d
00000350: 511c 34bd d17f 643e 6486 943e 5a0d 93bd
00000360: 8d7f 953d d96c 0bbf 09e4 243e a391 763e
00000370: afbd 80bd 025a c03d 1154 5b3d 9068 f93d
00000380: 632a a4bd fbe3 b73c dd06 483e c417 103d
00000390: e135 86bd b677 0d3e e947 debd 65c8 0b3f
000003a0: 731d c5be 9cc1 1d3c 7bd6 803e 649f 073d
000003b0: ab5e 0f3e f251 a13e 6f78 803e d421 663e
000003c0: eec0 a13e a783 8cbb e421 d2bc 17cb 9f3c
000003d0: 8cd4 a53d b9f4 173e ac12 75be 92d4 023e
000003e0: 45b4 2abe 538d f0bd 17df 0cbd a33b 0fbe
000003f0: 70c2 013e 88c2 223e ea0d df3d fea5 1c3d

network_body.linear_encoder.seq_layers.2.bias f4 [256]
-0.02039448 -0.055263206 -0.16229428 0.042167958 -0.100157395 -0.09387341 -0.090966605 -0.06615558
-0.11965929 -0.048644803 -0.12086972 -0.10350593 -0.12727706 -0.11260182 -0.14314008 -0.02543088
0.09529864 -0.12110473 -0.046941582 -0.02233557 -0.15452269 -0.17529856 -0.16031298 -0.22247325
-0.06861069 0.020232156 -0.13719988 -0.082513615 -0.16120371 -0.041694257 -0.083781146 -0.12033722
-0.10413246 -0.096189044 -0.11534691 -0.05900694 -0.11133099 -0.13904 -0.12058273 -0.07853113
-0.059071325 -0.14012806 -0.194661 -0.04016509 -0.2097511 -0.16661796 -0.11956022 0.086100325
0.01188441 -0.18065266 0.011967726 -0.055413093 -0.13822322 -0.08598912 -0.13249631 -0.18389137
-0.09141608 -0.032762688 -0.11996051 -0.094169974 -0.08690856 -0.048274994 -0.14966239 -0.033151984
-0.10719636 -0.15216246 -0.11070396 -0.11265436 -0.10737058 -0.14760141 -0.11173312 -0.05600436
-0.1081119 -0.119210795 -0.1808968 -0.05768715 -0.13777053 -0.08743547 -0.0706921 -0.11791462
-0.09421602 -0.029262923 -0.10988065 -0.16786045 -0.18412569 -0.13038206 -0.14721023 -0.13892186
-0.10530008 -0.11774349 -0.14133917 -0.19517578 0.0020637023 -0.10174887 -0.09131439 -0.15487902
-0.10046031 -0.022185462 -0.19206068 -0.16283879 -0.06373968 -0.06786738 -0.08274799 -0.16130413
-0.084720306 -0.09233242 -0.070211 -0.07612693 -0.046047848 -0.15680304 -0.025989585 -0.11129308
-0.04094159 -0.074483745 -0.14424181 -0.12822081 -0.1600394 -0.12393962 -0.12993522 -0.15335512
-0.119333945 -0.1019986 -0.019548614 -0.06479909 -0.06943135 -0.089209825 -0.15815926 -0.077570185
-0.096338965 -0.034881767 -0.13654192 -0.103573516 -0.091549255 -0.025166286 -0.0039922902 -0.12466253
-0.1256636 -0.11326212 -0.12041097 -0.15772568 -0.07330451 -0.08913869 -0.09367907 0.006960773
-0.13172206 -0.1029592 -0.044074014 -0.15476212 -0.12651059 -0.05741785 -0.14389516 -0.08780222
-0.021051532 0.058382567 -0.11165277 -0.124998726 -0.17736645 -0.11338398 -0.14765152 -0.14187953
-0.16232702 -0.10046314 -0.09278383 -0.10792051 -0.1216106 -0.0298717 -0.11334611 -0.09117564
-0.086900614 -0.19545417 -0.1595963 -0.04525263 -0.15851232 -0.16337278 -0.047092672 -0.10776322
-0.052036047 -0.05470424 -0.12024193 -0.14110488 -0.06284118 0.09962687 -0.0823968 -0.09591784
-0.11009828 -0.13982593 -0.051818278 -0.010059409 -0.07964101 -0.18105236 -0.13943397 -0.14527966
-0.11878257 -0.0126827145 -0.02525605 -0.13632496 -0.17555809 -0.15197249 -0.16066407 -0.14865412
0.073213845 -0.052189723 -0.108509354 -0.14484909 -0.07528885 -0.22701904 -0.14663726 -0.08041119
-0.16390464 -0.11933692 -0.05674977 -0.10041229 -0.13869008 -0.118412934 -0.08595512 -0.08119666
-0.1482079 -0.0070024594 -0.14243318 -0.19721238 -0.115281895 -0.13943893 -0.110697836 -0.07788331
-0.12472874 -0.15247948 -0.10760004 -0.04205924 -0.066195734 -0.025539529 -0.15984203 -0.12186462
-0.0046253675 -0.13319369 -0.12808667 -0.14073367 -0.086194426 -0.09217743 -0.029750131 -0.15788256
-0.08980014 -0.18498768 -0.03648151 -0.12963177 -0.06541464 -0.13927598 -0.06822331 -0.16280349
-0.0886428 -0.22748622 -0.10982674 -0.09502205 -0.13851033 -0.115578376 -0.06355585 -0.15796158
00000000: 5312 a7bc ac5b 62bd 7930 26be 4fb8 2c3d
00000010: 521f cdbd b440 c0bd b34c babd 947c 87bd
00000020: ee0f f5bd c63f 47bd 8b8a f7bd ebfa d3bd
00000030: eb54 02be c89b e6bd 5093 12be 6c54 d0bc
00000040: ef2b c33d c205 f8bd d145 40bd 16f9 b6bc
00000050: 323b 1ebe 7781 33be 1629 24be 07d0 63be
00000060: c383 8cbd e8bd a53c 207e 0cbe e6fc a8bd
00000070: 9612 25be 99c7 2abd 7395 abbd 5c73 f6bd
00000080: 6643 d5bd c3fe c4bd 003b ecbd 43b1 71bd
00000090: 8101 e4bd 8060 0ebe 14f4 f6bd eed4 a0bd
000000a0: c6f4 71bd bb7d 0fbe 3755 47be 2684 24bd
000000b0: fec8 56be e69d 2abe fddb f4bd 5e55 b03d
000000c0: d4b6 423c 03fd 38be 4814 443c d7f8 62bd
000000d0: 638a 0dbe 101b b0bd 1dad 07be 054e 3cbe
000000e0: 5b38 bbbd 2b32 06bd dbad f5bd 30dc c0bd
000000f0: 1dfd b1bd 00bc 45bd 1941 19be 60ca 07bd
00000100: c489 dbbd 7ad0 1bbe c2b8 e2bd 54b7 e6bd
00000110: 1be5 dbbd d324 17be 56d4 e4bd d464 65bd
00000120: c669 ddbd ca24 f4bd 033d 39be 5c49 6cbd
00000130: b813 0dbe 5e11 b3bd 05c7 90bd 387d f1bd
00000140: 54f4 c0bd ccb8 efbc 1b09 e1bd 9ce3 2bbe
00000150: 728b 3cbe e082 05be 47be 16be 8841 0ebe
00000160: 91a7 d7bd 8023 f1bd 37bb 10be 29dc 47be
00000170: 2e3f 073b b661 d0bd 0a03 bbbd 9b98 1ebe
00000180: 23be cdbd 49be b5bc 8eab 44be 36bf 26be
00000190: f389 82bd 0efe 8abd c777 a9bd e92c 25be
000001a0: d781 adbd c818 bdbd c9ca 8fbd 70e8 9bbd
000001b0: ab9c 3cbd fa90 20be 1ce8 d4bc a0ed e3bd
000001c0: 5eb2 27bd ef8a 98bd 20b4 13be 514c 03be
000001d0: 5ee1 23be 0ed4 fdbd bd0d 05be 2009 1dbe
000001e0: 5b65 f4bd a4e4 d0bd 6a24 a0bc 63b5 84bd
000001f0: 0632 8ebd a4b3 b6bd 80f4 21be 1edd 9ebd
00000200: 5d4d c5bd 2fe0 0ebd a5d1 0bbe 5a1e d4bd
00000210: 2d7e bbbd 8729 cebc c2d1 82bb 124f ffbd
00000220: f5ad 00be f8f5 e7bd 079a f6bd d782 21be
00000230: ad20 96bd 588e b6bd d0da bfbd 3217 e43b
00000240: 26e2 06be 46dc d2bd f486 34bd f679 1ebe
00000250: fe8b 01be fb2e 6bbd 4159 13be a6d1 b3bd
00000260: 4374 acbc 8f22 6f3d 35aa e4bd 55ff ffbd
00000270: 8d9f 35be dc35 e8bd f631 17be de48 11be
00000280: 0e39 26be 9ebf cdbd 7305 bebd 6e05 ddbd
00000290: fa0e f9bd 7fb5 f4bc 0122 e8bd 4bba babd
000002a0: f3f8 b1bd 2325 48be 366d 23be d25a 39bd
000002b0: 0e51 22be 324b 27be 3fe4 40bd f7b2 dcbd
000002c0: c023 55bd 8e11 60bd 6741 f6bd cc7d 10be
000002d0: e0b2 80bd 2c09 cc3d a7bf a8bd 9370 c4bd
000002e0: 357b e1bd 872e 0fbe 673f 54bd 38d0 24bc
000002f0: d31a a3bd ca65 39be c7c7 0ebe 31c4 14be
00000300: 4744 f3bd 29cb 4fbc c7e5 cebc c598 0bbe
00000310: 80c5 33be ad9e 1bbe 1f85 24be c938 18be
00000320: 24f1 953d e4c4 55bd 273a debd 5253 14be
00000330: 0a31 9abd ae77 68be 1428 16be 9fae a4bd
00000340: 9ed6 27be ea66 f4bd 7272 68bd f5a4 cdbd
00000350: c604 0ebe 7b82 f2bd 3d09 b0bd 6f4a a6bd
00000360: d0c3 17be e374 e5bb 01da 11be 0bf2 49be
00000370: ea18 ecbd 14c9 0ebe 8cb5 e2bd 4981 9fbd
00000380: c871 ffbd 9523 1cbe 695d dcbd 4f46 2cbd
00000390: a191 87bd 4638 d1bc a1ad 23be 2894 f9bd
000003a0: 6590 97bb ed63 08be 2729 03be 7d1c 10be
000003b0: b486 b0bd 85c7 bcbd 8cb6 f3bc f7ab 21be
000003c0: 23e9 b7bd 696d 3dbe a36d 15bd 31be 04be
000003d0: 1cf8 85bd 5d9e 0ebe aab8 8bbd f5b5 26be
000003e0: 5b8a b5bd 26f2 68be d8ec e0bd ec9a c2bd
000003f0: a7d5 0dbe 5bb4 ecbd 9229 82bd aec0 21be

network_body.linear_encoder.seq_layers.2.weight f4 [256, 256]
0.030742146 0.06954677 0.096675456 0.08209237 -0.02501901 0.00046075002 0.0923995 0.030000826
-0.06355704 -0.042963345 -0.05732261 -0.22984523 0.021925092 -0.14456177 0.02269053 -0.022385633
0.18930753 -0.036553316 -0.032803617 -0.04319881 -0.24606834 -0.096542984 -0.18785872 -0.018008372
0.003309472 0.042477667 -0.030882606 0.034708753 -0.04754764 -0.07932901 0.03238332 -0.12639472
-0.1512913 -0.09514041 -0.08198615 -0.012607784 -0.030095622 -0.034604352 -0.35428864 0.051347207
-0.10727168 -0.0002800995 -0.031230632 0.04289762 0.014988815 -0.057350114 0.00441709 0.038335796
0.034233727 -0.04252855 -0.206113 -0.009231502 0.11115467 0.10967415 -0.1505732 -0.028126614
-0.073480524 -0.042885255 0.07257245 0.0861138 -0.045499083 -0.09996845 -0.0031455464 -0.24381708
-0.04322202 0.11205208 -0.09152162 -0.03931442 -0.05820128 -0.0126013225 0.03269164 0.08205727
0.11517095 0.0012669993 0.09790598 -0.14740115 -0.20092726 0.055214528 -0.047574684 -0.18163037
-0.09448833 0.082289256 -0.0065023415 0.0721797 0.015083566 0.0313413 -0.111000076 -0.0076138424
0.122300245 0.00014967125 0.07561171 -0.17317748 0.07447003 0.103897184 0.09639123 0.13842593
-0.023786243 -0.015647857 -0.015230768 0.016607072 -0.077497855 -0.1037395 -0.0026757116 -0.030648487
0.11700935 -0.20434684 0.06786568 -0.026402222 -0.037604515 -0.03754332 -0.008473104 -0.14158376
0.08519521 -0.014248671 -0.137628 -0.1565017 -0.19856237 -0.119457066 0.04397109 0.095663965
-0.005093954 -0.105327 0.01946281 -0.011328041 -0.059732787 -0.04831202 -0.02379414 -0.12035665
-0.047505718 -0.0082519045 0.00090045814 -0.023878733 -0.03355817 0.09338401 0.036229078 0.1279395
-0.18882614 -0.026146252 -0.008778402 0.010066682 0.046636965 -0.09288478 -0.036673177 0.008221313
-0.026231138 0.083852105 -0.008254047 0.036335304 0.033993796 -0.014400828 -0.043591432 -0.15352756
-0.04189305 -0.04452169 0.13087967 -0.08194986 0.051883385 -0.012432122 0.049915783 0.021996278
0.0050689788 8.7532004e-05 -0.056353174 -0.064421594 0.016149044 0.06010611 0.110891216 0.14723727
-0.19304803 0.044748228 0.1089691 0.025223114 -0.090416245 0.10025526 -0.04339438 -0.003116781
-0.117382154 -0.06692057 -0.015115876 -0.12186414 0.06791964 -0.053989697 0.07669413 0.049562994
0.089259624 -0.033125363 0.08298376 -0.06785964 0.073615655 -0.076898344 0.10279395 -0.07749429
0.04375504 -0.1383002 0.034792263 0.041399747 -0.13650474 0.049189243 0.0023069058 -0.27778786
0.036736287 0.12871891 -0.109423645 0.037866894 -0.0043866597 -0.0019765 -0.052941624 0.05905577
-0.011009192 -0.04358579 0.06628587 0.04186048 0.02030961 0.069944054 0.035950456 -0.051925022
-0.053609002 0.0833476 0.0041981917 0.12963477 -0.20517832 -0.042947836 -0.018037241 0.014954713
0.028390147 -0.05812565 -0.11533142 -0.07917202 -0.06956886 -0.07393983 0.07057055 -0.03144265
-0.060733516 -0.021331443 0.14226145 0.0821589 0.007074534 -0.08691061 0.044799257 -0.025907205
0.03418202 -0.039495833 -0.09434621 -0.08506649 -0.13149354 -0.27331784 0.063522145 -0.010224969
0.1588254 -0.011182671 -0.06034385 0.07777872 0.12859225 -0.13044174 -0.15638894 -0.008125935
00000000: f4d6 fb3c 896e 8e3d c8fd c53d 0b20 a83d
00000010: abf4 ccbc d290 f139 f33b bd3d 4bc4 f53c
00000020: 322a 82bd 55fa 2fbd 1dcb 6abd 8c5c 6bbe
00000030: 409c b33c 0008 14be 7ee1 b93c 1362 b7bc
00000040: d5d9 413e eeb8 15bd 165d 06bd 3cf1 30bd
00000050: 57f9 7bbe 54b8 c5bd 095e 40be 4b86 93bc
00000060: bae3 583b 10fd 2d3d 85fd fcbc c42a 0e3d
00000070: 50c1 42bd 3f77 a2bd 5fa4 043d 9e6d 01be
00000080: 1bec 1abe fad8 c2bd 5be8 a7bd e190 4ebc
00000090: 188b f6bc 4bbd 0dbd 5265 b5be 7351 523d
000000a0: 41b1 dbbd 52da 92b9 62d7 ffbc 6ab5 2f3d
000000b0: a693 753c f4e7 6abd 3dbd 903b ff05 1d3d
000000c0: aa38 0c3d 6b32 2ebd 490f 53be ba3f 17bc
000000d0: 0fa5 e33d d79c e03d dc2f 1abe c969 e6bc
000000e0: f57c 96bd 73a8 2fbd dda0 943d 6f5c b03d
000000f0: 3f5d 3abd 42bc ccbd 8325 4ebb 2fab 79be
00000100: 9309 31bd 907b e53d b06f bbbd 2808 21bd
00000110: 7764 6ebd c775 4ebc abe7 053d a40d a83d
00000120: bfde eb3d 7111 a63a ee82 c83d 54f0 16be
00000130: e0bf 4dbe a128 623d acdd 42bd 50fd 39be
00000140: 1983 c1bd 4587 a83d 9811 d5bb f3d2 933d
00000150: 1021 773c bc5f 003d 0254 e3bd 8a7d f9bb
00000160: 8d78 fa3d 12f1 1c39 50da 9a3d 7055 31be
00000170: be83 983d 0cc8 d43d c468 c53d 87bf 0d3e
00000180: 5edb c2bc ef2f 80bc 798a 79bc 8e0b 883c
00000190: 32b7 9ebd 6075 d4bd fe5a 2fbb 8912 fbbc
000001a0: 99a2 ef3d 4c40 51be 29fd 8a3d 7949 d8bc
000001b0: 3107 1abd 06c7 19bd c6d2 0abc 55fb 10be
000001c0: d47a ae3d 4273 69bc 5bee 0cbe fb41 20be
000001d0: ef53 4bbe e8a5 f4bd 081b 343d 78eb c33d
000001e0: 2feb a6bb afb5 d7bd 7970 9f3c 3f99 39bc
000001f0: 5eaa 74bd d3e2 45bd eeeb c2bc 8c7d f6bd
00000200: 5b95 42bd ff32 07bc b90c 6c3a 559d c3bc
00000210: 4b74 09bd 1e40 bf3d f164 143d 9302 033e
00000220: a45b 41be aa30 d6bc 49d3 0fbc b9ee 243c
00000230: 6706 3f3d 603a bebd 9d36 16bd b0b2 063c
00000240: afe2 d6bc a7ba ab3d fb3b 07bc 54d4 143d
00000250: 143d 0b3d 73f1 6bbc ee8c 32bd 5436 1dbe
00000260: 0c98 2bbd 605c 36bd 5205 063e 54d5 a7bd
00000270: ac83 543d 19b0 4bbc 7e74 4c3d 8a31 b43c
00000280: ad19 a63b 6391 b738 96d2 66bd 78ef 83bd
00000290: 004b 843c d331 763d ef1a e33d 5ec5 163e
000002a0: 62ae 45be eb49 373d 312b df3d b4a0 ce3c
000002b0: 272c b9bd a152 cd3d 4ebe 31bd e842 4cbb
000002c0: 0e66 f0bd a70d 89bd 94a8 77bc e893 f9bd
000002d0: 7419 8b3d 4d24 5dbd d011 9d3d 9102 4b3d
000002e0: c0cd b63d 76ae 07bd 64f3 a93d fff9 8abd
000002f0: cec3 963d e17c 9dbd a285 d23d 54b5 9ebd
00000300: 7c38 333d 919e 0dbe 5582 0e3d c892 293d
00000310: e6c7 0bbe a97a 493d 752f 173b 363a 8ebe
00000320: ca78 163d e4ce 033e 8119 e0bd 511a 1b3d
00000330: f8bd 8fbb 2b88 01bb 51d9 58bd 77e4 713d
00000340: e65f 34bc 0387 32bd e3c0 873d e575 2b3d
00000350: 5760 a63c d43e 8f3d c940 133d 55af 54bd
00000360: 1d95 5bbd 26b2 aa3d fc90 893b fabe 043e
00000370: 441a 52be 12ea 2fbd d6c2 93bc 9d04 753c
00000380: 7492 e83c 2915 6ebd e132 ecbd f124 a2bd
00000390: 1e7a 8ebd c46d 97bd 4b87 903d 02ca 00bd
000003a0: b5c3 78bd 47bf aebc fcac 113e ed42 a83d
000003b0: 7ed1 e73b 31fe b1bd 6d7f 373d 593b d4bc
000003c0: 7202 0c3d 62c6 21bd 9638 c1bd 5737 aebd
000003d0: 3ea6 06be 51f0 8bbe e617 823d a186 27bc
000003e0: 20a3 223e 8637 37bc 1d2b 77bd 734a 9f3d
000003f0: b0ad 033e 8592 05be 6c24 20be a422 05bc

network_body.vector_processors.0.normalizer.running_mean f4 [35]
0.5506325 0.4380457 0.011322687 0.204888 0.47630972 0.5191457 0.004541367 0.27348828
0.8765458 0.11987789 0.0035755706 0.11871618 0.76975363 0.22861694 0.0016265535 0.2539125
0.76832825 0.22766435 0.004007238 0.13817959 0.30828208 0.4747035 0.21701404 0.27730215
0.27237743 0.639199 0.08842102 0.17232421 0.34176934 0.23144966 0.4267803 0.478562
0.008498246 0.031828724 0.053395554
00000000: 40f6 0c3f 8747 e03e cb82 393c 29ce 513e
00000010: dede f33e bce6 043f bfcf 943b a806 8c3e
00000020: 4e65 603f 8a82 f53d 1f54 6a3b 7821 f33d
00000030: 930e 453f 8f1a 6a3e 1432 d53a d200 823e
00000040: 29b1 443f d820 693e 264f 833b f37e 0d3e
00000050: 26d7 9d3e 560c f33e ee38 5e3e 8cfa 8d3e
00000060: 0e75 8b3e 8ca2 233f 1416 b53d c275 303e
00000070: 64fc ae3e 2401 6d3e f382 da3e 1406 f53e
00000080: 3a3c 0b3c d65e 023d 4cb5 5a3d
